…
    "                ax.set_title('predicted: {}'.format(class_names[preds[j]]))\n",
    "                imshow(inputs.cpu().data[j])\n",
    "\n",
    "                if images_so_far == num_images:\n",
    "                    model.train(mode=was_training)\n",
    "                    return\n",
    "        model.train(mode=was_training)"
   ]
  },
  {
   "cell_type": "markdown",
   "metadata": {},
   "source": [
    "## AlexNet"
   ]
  },
  {
   "cell_type": "code",
   "execution_count": 26,
   "metadata": {
    "scrolled": true
   },
   "outputs": [
    {
     "data": {
      "text/plain": [
       "AlexNet(\n",
       "  (features): Sequential(\n",
       "    (0): Conv2d(3, 64, kernel_size=(11, 11), stride=(4, 4), padding=(2, 2))\n",
       "    (1): ReLU(inplace=True)\n",
       "    (2): MaxPool2d(kernel_size=3, stride=2, padding=0, dilation=1, ceil_mode=False)\n",
       "    (3): Conv2d(64, 192, kernel_size=(5, 5), stride=(1, 1), padding=(2, 2))\n",
       "    (4): ReLU(inplace=True)\n",
       "    (5): MaxPool2d(kernel_size=3, stride=2, padding=0, dilation=1, ceil_mode=False)\n",
       "    (6): Conv2d(192, 384, kernel_size=(3, 3), stride=(1, 1), padding=(1, 1))\n",
       "    (7): ReLU(inplace=True)\n",
       "    (8): Conv2d(384, 256, kernel_size=(3, 3), stride=(1, 1), padding=(1, 1))\n",
       "    (9): ReLU(inplace=True)\n",
       "    (10): Conv2d(256, 256, kernel_size=(3, 3), stride=(1, 1), padding=(1, 1))\n",
       "    (11): ReLU(inplace=True)\n",
       "    (12): MaxPool2d(kernel_size=3, stride=2, padding=0, dilation=1, ceil_mode=False)\n",
       "  )\n",
       "  (avgpool): AdaptiveAvgPool2d(output_size=(6, 6))\n",
       "  (classifier): Sequential(\n",
       "    (0): Dropout(p=0.5, inplace=False)\n",
       "    (1): Linear(in_features=9216, out_features=4096, bias=True)\n",
       "    (2): ReLU(inplace=True)\n",
       "    (3): Dropout(p=0.5, inplace=False)\n",
       "    (4): Linear(in_features=4096, out_features=4096, bias=True)\n",
       "    (5): ReLU(inplace=True)\n",
       "    (6): Linear(in_features=4096, out_features=1000, bias=True)\n",
       "  )\n",
       ")"
      ]
     },
     "execution_count": 26,
     "metadata": {},
     "output_type": "execute_result"
    }
   ],
   "source": [
    "torchvision.models.alexnet(pretrained=True)"
   ]
  },
  {
   "cell_type": "code",
   "execution_count": 31,
   "metadata": {},
   "outputs": [],
   "source": [
    "device = torch.device(\"cuda:0\" if torch.cuda.is_available() else \"cpu\")\n",
…
   "cell_type": "markdown",
   "metadata": {},
   "source": [
    "## DenseNet"
   ]
  },
  {
   "cell_type": "code",
   "execution_count": 19,
   "metadata": {
    "scrolled": true
   },
   "outputs": [
    {
     "name": "stderr",
     "output_type": "stream",
     "text": [
      "Downloading: \"https://download.pytorch.org/models/densenet161-8d451a50.pth\" to /Users/nathenhuang/.torch/models/densenet161-8d451a50.pth\n",
      "115730790it [01:51, 1037938.31it/s]\n"
     ]
    },
    {
     "data": {
      "text/plain": [
       "DenseNet(\n",
       "  (features): Sequential(\n",
       "    (conv0): Conv2d(3, 96, kernel_size=(7, 7), stride=(2, 2), padding=(3, 3), bias=False)\n",
       "    (norm0): BatchNorm2d(96, eps=1e-05, momentum=0.1, affine=True, track_running_stats=True)\n",
       "    (relu0): ReLU(inplace)\n",
       "    (pool0): MaxPool2d(kernel_size=3, stride=2, padding=1, dilation=1, ceil_mode=False)\n",
       "    (denseblock1): _DenseBlock(\n",
       "      (denselayer1): _DenseLayer(\n",
       "        (norm1): BatchNorm2d(96, eps=1e-05, momentum=0.1, affine=True, track_running_stats=True)\n",
       "        (relu1): ReLU(inplace)\n",
       "        (conv1): Conv2d(96, 192, kernel_size=(1, 1), stride=(1, 1), bias=False)\n",
       "        (norm2): BatchNorm2d(192, eps=1e-05, momentum=0.1, affine=True, track_running_stats=True)\n",
       "        (relu2): ReLU(inplace)\n",
       "        (conv2): Conv2d(192, 48, kernel_size=(3, 3), stride=(1, 1), padding=(1, 1), bias=False)\n",
       "      )\n",
       "      (denselayer2): _DenseLayer(\n",
       "        (norm1): BatchNorm2d(144, eps=1e-05, momentum=0.1, affine=True, track_running_stats=True)\n",
       "        (relu1): ReLU(inplace)\n",
       "        (conv1): Conv2d(144, 192, kernel_size=(1, 1), stride=(1, 1), bias=False)\n",
       "        (norm2): BatchNorm2d(192, eps=1e-05, momentum=0.1, affine=True, track_running_stats=True)\n",
       "        (relu2): ReLU(inplace)\n",
       "        (conv2): Conv2d(192, 48, kernel_size=(3, 3), stride=(1, 1), padding=(1, 1), bias=False)\n",
       "      )\n",
       "      (denselayer3): _DenseLayer(\n",
       "        (norm1): BatchNorm2d(192, eps=1e-05, momentum=0.1, affine=True, track_running_stats=True)\n",
       "        (relu1): ReLU(inplace)\n",
       "        (conv1): Conv2d(192, 192, kernel_size=(1, 1), stride=(1, 1), bias=False)\n",
       "        (norm2): BatchNorm2d(192, eps=1e-05, momentum=0.1, affine=True, track_running_stats=True)\n",
       "        (relu2): ReLU(inplace)\n",
       "        (conv2): Conv2d(192, 48, kernel_size=(3, 3), stride=(1, 1), padding=(1, 1), bias=False)\n",
       "      )\n",
       "      (denselayer4): _DenseLayer(\n",
       "        (norm1): BatchNorm2d(240, eps=1e-05, momentum=0.1, affine=True, track_running_stats=True)\n",
       "        (relu1): ReLU(inplace)\n",
       "        (conv1): Conv2d(240, 192, kernel_size=(1, 1), stride=(1, 1), bias=False)\n",
       "        (norm2): BatchNorm2d(192, eps=1e-05, momentum=0.1, affine=True, track_running_stats=True)\n",
       "        (relu2): ReLU(inplace)\n",
       "        (conv2): Conv2d(192, 48, kernel_size=(3, 3), stride=(1, 1), padding=(1, 1), bias=False)\n",
       "      )\n",
       "      (denselayer5): _DenseLayer(\n",
       "        (norm1): BatchNorm2d(288, eps=1e-05, momentum=0.1, affine=True, track_running_stats=True)\n",
       "        (relu1): ReLU(inplace)\n",
       "        (conv1): Conv2d(288, 192, kernel_size=(1, 1), stride=(1, 1), bias=False)\n",
       "        (norm2): BatchNorm2d(192, eps=1e-05, momentum=0.1, affine=True, track_running_stats=True)\n",
       "        (relu2): ReLU(inplace)\n",
       "        (conv2): Conv2d(192, 48, kernel_size=(3, 3), stride=(1, 1), padding=(1, 1), bias=False)\n",
       "      )\n",
       "      (denselayer6): _DenseLayer(\n",
       "        (norm1): BatchNorm2d(336, eps=1e-05, momentum=0.1, affine=True, track_running_stats=True)\n",
       "        (relu1): ReLU(inplace)\n",
       "        (conv1): Conv2d(336, 192, kernel_size=(1, 1), stride=(1, 1), bias=False)\n",
       "        (norm2): BatchNorm2d(192, eps=1e-05, momentum=0.1, affine=True, track_running_stats=True)\n",
       "        (relu2): ReLU(inplace)\n",
       "        (conv2): Conv2d(192, 48, kernel_size=(3, 3), stride=(1, 1), padding=(1, 1), bias=False)\n",
       "      )\n",
       "    )\n",
       "    (transition1): _Transition(\n",
       "      (norm): BatchNorm2d(384, eps=1e-05, momentum=0.1, affine=True, track_running_stats=True)\n",
       "      (relu): ReLU(inplace)\n",
       "      (conv): Conv2d(384, 192, kernel_size=(1, 1), stride=(1, 1), bias=False)\n",
       "      (pool): AvgPool2d(kernel_size=2, stride=2, padding=0)\n",
       "    )\n",
       "    (denseblock2): _DenseBlock(\n",
       "      (denselayer1): _DenseLayer(\n",
       "        (norm1): BatchNorm2d(192, eps=1e-05, momentum=0.1, affine=True, track_running_stats=True)\n",
       "        (relu1): ReLU(inplace)\n",
       "        (conv1): Conv2d(192, 192, kernel_size=(1, 1), stride=(1, 1), bias=False)\n",
       "        (norm2): BatchNorm2d(192, eps=1e-05, momentum=0.1, affine=True, track_running_stats=True)\n",
       "        (relu2): ReLU(inplace)\n",
       "        (conv2): Conv2d(192, 48, kernel_size=(3, 3), stride=(1, 1), padding=(1, 1), bias=False)\n",
       "      )\n",
       "      (denselayer2): _DenseLayer(\n",
       "        (norm1): BatchNorm2d(240, eps=1e-05, momentum=0.1, affine=True, track_running_stats=True)\n",
       "        (relu1): ReLU(inplace)\n",
       "        (conv1): Conv2d(240, 192, kernel_size=(1, 1), stride=(1, 1), bias=False)\n",
       "        (norm2): BatchNorm2d(192, eps=1e-05, momentum=0.1, affine=True, track_running_stats=True)\n",
       "        (relu2): ReLU(inplace)\n",
       "        (conv2): Conv2d(192, 48, kernel_size=(3, 3), stride=(1, 1), padding=(1, 1), bias=False)\n",
       "      )\n",
       "      (denselayer3): _DenseLayer(\n",
       "        (norm1): BatchNorm2d(288, eps=1e-05, momentum=0.1, affine=True, track_running_stats=True)\n",
       "        (relu1): ReLU(inplace)\n",
       "        (conv1): Conv2d(288, 192, kernel_size=(1, 1), stride=(1, 1), bias=False)\n",
       "        (norm2): BatchNorm2d(192, eps=1e-05, momentum=0.1, affine=True, track_running_stats=True)\n",
       "        (relu2): ReLU(inplace)\n",
       "        (conv2): Conv2d(192, 48, kernel_size=(3, 3), stride=(1, 1), padding=(1, 1), bias=False)\n",
       "      )\n",
       "      (denselayer4): _DenseLayer(\n",
       "        (norm1): BatchNorm2d(336, eps=1e-05, momentum=0.1, affine=True, track_running_stats=True)\n",
       "        (relu1): ReLU(inplace)\n",
       "        (conv1): Conv2d(336, 192, kernel_size=(1, 1), stride=(1, 1), bias=False)\n",
       "        (norm2): BatchNorm2d(192, eps=1e-05, momentum=0.1, affine=True, track_running_stats=True)\n",
       "        (relu2): ReLU(inplace)\n",
       "        (conv2): Conv2d(192, 48, kernel_size=(3, 3), stride=(1, 1), padding=(1, 1), bias=False)\n",
       "      )\n",
       "      (denselayer5): _DenseLayer(\n",
       "        (norm1): BatchNorm2d(384, eps=1e-05, momentum=0.1, affine=True, track_running_stats=True)\n",
       "        (relu1): ReLU(inplace)\n",
       "        (conv1): Conv2d(384, 192, kernel_size=(1, 1), stride=(1, 1), bias=False)\n",
       "        (norm2): BatchNorm2d(192, eps=1e-05, momentum=0.1, affine=True, track_running_stats=True)\n",
       "        (relu2): ReLU(inplace)\n",
       "        (conv2): Conv2d(192, 48, kernel_size=(3, 3), stride=(1, 1), padding=(1, 1), bias=False)\n",
       "      )\n",
       "      (denselayer6): _DenseLayer(\n",
       "        (norm1): BatchNorm2d(432, eps=1e-05, momentum=0.1, affine=True, track_running_stats=True)\n",
       "        (relu1): ReLU(inplace)\n",
       "        (conv1): Conv2d(432, 192, kernel_size=(1, 1), stride=(1, 1), bias=False)\n",
       "        (norm2): BatchNorm2d(192, eps=1e-05, momentum=0.1, affine=True, track_running_stats=True)\n",
       "        (relu2): ReLU(inplace)\n",
       "        (conv2): Conv2d(192, 48, kernel_size=(3, 3), stride=(1, 1), padding=(1, 1), bias=False)\n",
       "      )\n",
       "      (denselayer7): _DenseLayer(\n",
       "        (norm1): BatchNorm2d(480, eps=1e-05, momentum=0.1, affine=True, track_running_stats=True)\n",
       "        (relu1): ReLU(inplace)\n",
       "        (conv1): Conv2d(480, 192, kernel_size=(1, 1), stride=(1, 1), bias=False)\n",
       "        (norm2): BatchNorm2d(192, eps=1e-05, momentum=0.1, affine=True, track_running_stats=True)\n",
       "        (relu2): ReLU(inplace)\n",
       "        (conv2): Conv2d(192, 48, kernel_size=(3, 3), stride=(1, 1), padding=(1, 1), bias=False)\n",
       "      )\n",
       "      (denselayer8): _DenseLayer(\n",
       "        (norm1): BatchNorm2d(528, eps=1e-05, momentum=0.1, affine=True, track_running_stats=True)\n",
       "        (relu1): ReLU(inplace)\n",
       "        (conv1): Conv2d(528, 192, kernel_size=(1, 1), stride=(1, 1), bias=False)\n",
       "        (norm2): BatchNorm2d(192, eps=1e-05, momentum=0.1, affine=True, track_running_stats=True)\n",
       "        (relu2): ReLU(inplace)\n",
       "        (conv2): Conv2d(192, 48, kernel_size=(3, 3), stride=(1, 1), padding=(1, 1), bias=False)\n",
       "      )\n",
       "      (denselayer9): _DenseLayer(\n",
       "        (norm1): BatchNorm2d(576, eps=1e-05, momentum=0.1, affine=True, track_running_stats=True)\n",
       "        (relu1): ReLU(inplace)\n",
       "        (conv1): Conv2d(576, 192, kernel_size=(1, 1), stride=(1, 1), bias=False)\n",
       "        (norm2): BatchNorm2d(192, eps=1e-05, momentum=0.1, affine=True, track_running_stats=True)\n",
       "        (relu2): ReLU(inplace)\n",
       "        (conv2): Conv2d(192, 48, kernel_size=(3, 3), stride=(1, 1), padding=(1, 1), bias=False)\n",
       "      )\n",
       "      (denselayer10): _DenseLayer(\n",
       "        (norm1): BatchNorm2d(624, eps=1e-05, momentum=0.1, affine=True, track_running_stats=True)\n",
       "        (relu1): ReLU(inplace)\n",
       "        (conv1): Conv2d(624, 192, kernel_size=(1, 1), stride=(1, 1), bias=False)\n",
       "        (norm2): BatchNorm2d(192, eps=1e-05, momentum=0.1, affine=True, track_running_stats=True)\n",
       "        (relu2): ReLU(inplace)\n",
       "        (conv2): Conv2d(192, 48, kernel_size=(3, 3), stride=(1, 1), padding=(1, 1), bias=False)\n",
       "      )\n",
       "      (denselayer11): _DenseLayer(\n",
       "        (norm1): BatchNorm2d(672, eps=1e-05, momentum=0.1, affine=True, track_running_stats=True)\n",
       "        (relu1): ReLU(inplace)\n",
       "        (conv1): Conv2d(672, 192, kernel_size=(1, 1), stride=(1, 1), bias=False)\n",
       "        (norm2): BatchNorm2d(192, eps=1e-05, momentum=0.1, affine=True, track_running_stats=True)\n",
       "        (relu2): ReLU(inplace)\n",
       "        (conv2): Conv2d(192, 48, kernel_size=(3, 3), stride=(1, 1), padding=(1, 1), bias=False)\n",
       "      )\n",
       "      (denselayer12): _DenseLayer(\n",
       "        (norm1): BatchNorm2d(720, eps=1e-05, momentum=0.1, affine=True, track_running_stats=True)\n",
       "        (relu1): ReLU(inplace)\n",
       "        (conv1): Conv2d(720, 192, kernel_size=(1, 1), stride=(1, 1), bias=False)\n",
       "        (norm2): BatchNorm2d(192, eps=1e-05, momentum=0.1, affine=True, track_running_stats=True)\n",
       "        (relu2): ReLU(inplace)\n",
       "        (conv2): Conv2d(192, 48, kernel_size=(3, 3), stride=(1, 1), padding=(1, 1), bias=False)\n",
       "      )\n",
       "    )\n",
       "    (transition2): _Transition(\n",
       "      (norm): BatchNorm2d(768, eps=1e-05, momentum=0.1, affine=True, track_running_stats=True)\n",
       "      (relu): ReLU(inplace)\n",
       "      (conv): Conv2d(768, 384, kernel_size=(1, 1), stride=(1, 1), bias=False)\n",
       "      (pool): AvgPool2d(kernel_size=2, stride=2, padding=0)\n",
       "    )\n",
       "    (denseblock3): _DenseBlock(\n",
       "      (denselayer1): _DenseLayer(\n",
       "        (norm1): BatchNorm2d(384, eps=1e-05, momentum=0.1, affine=True, track_running_stats=True)\n",
       "        (relu1): ReLU(inplace)\n",
       "        (conv1): Conv2d(384, 192, kernel_size=(1, 1), stride=(1, 1), bias=False)\n",
       "        (norm2): BatchNorm2d(192, eps=1e-05, momentum=0.1, affine=True, track_running_stats=True)\n",
       "        (relu2): ReLU(inplace)\n",
       "        (conv2): Conv2d(192, 48, kernel_size=(3, 3), stride=(1, 1), padding=(1, 1), bias=False)\n",
       "      )\n",
       "      (denselayer2): _DenseLayer(\n",
       "        (norm1): BatchNorm2d(432, eps=1e-05, momentum=0.1, affine=True, track_running_stats=True)\n",
       "        (relu1): ReLU(inplace)\n",
       "        (conv1): Conv2d(432, 192, kernel_size=(1, 1), stride=(1, 1), bias=False)\n",
       "        (norm2): BatchNorm2d(192, eps=1e-05, momentum=0.1, affine=True, track_running_stats=True)\n",
       "        (relu2): ReLU(inplace)\n",
       "        (conv2): Conv2d(192, 48, kernel_size=(3, 3), stride=(1, 1), padding=(1, 1), bias=False)\n",
       "      )\n",
       "      (denselayer3): _DenseLayer(\n",
       "        (norm1): BatchNorm2d(480, eps=1e-05, momentum=0.1, affine=True, track_running_stats=True)\n",
       "        (relu1): ReLU(inplace)\n",
       "        (conv1): Conv2d(480, 192, kernel_size=(1, 1), stride=(1, 1), bias=False)\n",
       "        (norm2): BatchNorm2d(192, eps=1e-05, momentum=0.1, affine=True, track_running_stats=True)\n",
       "        (relu2): ReLU(inplace)\n",
       "        (conv2): Conv2d(192, 48, kernel_size=(3, 3), stride=(1, 1), padding=(1, 1), bias=False)\n",
       "      )\n",
       "      (denselayer4): _DenseLayer(\n",
       "        (norm1): BatchNorm2d(528, eps=1e-05, momentum=0.1, affine=True, track_running_stats=True)\n",
       "        (relu1): ReLU(inplace)\n",
       "        (conv1): Conv2d(528, 192, kernel_size=(1, 1), stride=(1, 1), bias=False)\n",
       "        (norm2): BatchNorm2d(192, eps=1e-05, momentum=0.1, affine=True, track_running_stats=True)\n",
       "        (relu2): ReLU(inplace)\n",
       "        (conv2): Conv2d(192, 48, kernel_size=(3, 3), stride=(1, 1), padding=(1, 1), bias=False)\n",
       "      )\n",
       "      (denselayer5): _DenseLayer(\n",
       "        (norm1): BatchNorm2d(576, eps=1e-05, momentum=0.1, affine=True, track_running_stats=True)\n",
       "        (relu1): ReLU(inplace)\n",
       "        (conv1): Conv2d(576, 192, kernel_size=(1, 1), stride=(1, 1), bias=False)\n",
       "        (norm2): BatchNorm2d(192, eps=1e-05, momentum=0.1, affine=True, track_running_stats=True)\n",
       "        (relu2): ReLU(inplace)\n",
       "        (conv2): Conv2d(192, 48, kernel_size=(3, 3), stride=(1, 1), padding=(1, 1), bias=False)\n",
       "      )\n",
       "      (denselayer6): _DenseLayer(\n",
       "        (norm1): BatchNorm2d(624, eps=1e-05, momentum=0.1, affine=True, track_running_stats=True)\n",
       "        (relu1): ReLU(inplace)\n",
       "        (conv1): Conv2d(624, 192, kernel_size=(1, 1), stride=(1, 1), bias=False)\n",
       "        (norm2): BatchNorm2d(192, eps=1e-05, momentum=0.1, affine=True, track_running_stats=True)\n",
       "        (relu2): ReLU(inplace)\n",
       "        (conv2): Conv2d(192, 48, kernel_size=(3, 3), stride=(1, 1), padding=(1, 1), bias=False)\n",
       "      )\n",
       "      (denselayer7): _DenseLayer(\n",
       "        (norm1): BatchNorm2d(672, eps=1e-05, momentum=0.1, affine=True, track_running_stats=True)\n",
       "        (relu1): ReLU(inplace)\n",
       "        (conv1): Conv2d(672, 192, kernel_size=(1, 1), stride=(1, 1), bias=False)\n",
       "        (norm2): BatchNorm2d(192, eps=1e-05, momentum=0.1, affine=True, track_running_stats=True)\n",
       "        (relu2): ReLU(inplace)\n",
       "        (conv2): Conv2d(192, 48, kernel_size=(3, 3), stride=(1, 1), padding=(1, 1), bias=False)\n",
       "      )\n",
       "      (denselayer8): _DenseLayer(\n",
       "        (norm1): BatchNorm2d(720, eps=1e-05, momentum=0.1, affine=True, track_running_stats=True)\n",
       "        (relu1): ReLU(inplace)\n",
       "        (conv1): Conv2d(720, 192, kernel_size=(1, 1), stride=(1, 1), bias=False)\n",
       "        (norm2): BatchNorm2d(192, eps=1e-05, momentum=0.1, affine=True, track_running_stats=True)\n",
       "        (relu2): ReLU(inplace)\n",
       "        (conv2): Conv2d(192, 48, kernel_size=(3, 3), stride=(1, 1), padding=(1, 1), bias=False)\n",
       "      )\n",
       "      (denselayer9): _DenseLayer(\n",
       "        (norm1): BatchNorm2d(768, eps=1e-05, momentum=0.1, affine=True, track_running_stats=True)\n",
       "        (relu1): ReLU(inplace)\n",
       "        (conv1): Conv2d(768, 192, kernel_size=(1, 1), stride=(1, 1), bias=False)\n",
       "        (norm2): BatchNorm2d(192, eps=1e-05, momentum=0.1, affine=True, track_running_stats=True)\n",
       "        (relu2): ReLU(inplace)\n",
       "        (conv2): Conv2d(192, 48, kernel_size=(3, 3), stride=(1, 1), padding=(1, 1), bias=False)\n",
       "      )\n",
       "      (denselayer10): _DenseLayer(\n",
       "        (norm1): BatchNorm2d(816, eps=1e-05, momentum=0.1, affine=True, track_running_stats=True)\n",
       "        (relu1): ReLU(inplace)\n",
       "        (conv1): Conv2d(816, 192, kernel_size=(1, 1), stride=(1, 1), bias=False)\n",
       "        (norm2): BatchNorm2d(192, eps=1e-05, momentum=0.1, affine=True, track_running_stats=True)\n",
       "        (relu2): ReLU(inplace)\n",
       "        (conv2): Conv2d(192, 48, kernel_size=(3, 3), stride=(1, 1), padding=(1, 1), bias=False)\n",
       "      )\n",
       "      (denselayer11): _DenseLayer(\n",
       "        (norm1): BatchNorm2d(864, eps=1e-05, momentum=0.1, affine=True, track_running_stats=True)\n",
       "        (relu1): ReLU(inplace)\n",
       "        (conv1): Conv2d(864, 192, kernel_size=(1, 1), stride=(1, 1), bias=False)\n",
       "        (norm2): BatchNorm2d(192, eps=1e-05, momentum=0.1, affine=True, track_running_stats=True)\n",
       "        (relu2): ReLU(inplace)\n",
       "        (conv2): Conv2d(192, 48, kernel_size=(3, 3), stride=(1, 1), padding=(1, 1), bias=False)\n",
       "      )\n",
       "      (denselayer12): _DenseLayer(\n",
       "        (norm1): BatchNorm2d(912, eps=1e-05, momentum=0.1, affine=True, track_running_stats=True)\n",
       "        (relu1): ReLU(inplace)\n",
       "        (conv1): Conv2d(912, 192, kernel_size=(1, 1), stride=(1, 1), bias=False)\n",
       "        (norm2): BatchNorm2d(192, eps=1e-05, momentum=0.1, affine=True, track_running_stats=True)\n",
       "        (relu2): ReLU(inplace)\n",
       "        (conv2): Conv2d(192, 48, kernel_size=(3, 3), stride=(1, 1), padding=(1, 1), bias=False)\n",
       "      )\n",
       "      (denselayer13): _DenseLayer(\n",
       "        (norm1): BatchNorm2d(960, eps=1e-05, momentum=0.1, affine=True, track_running_stats=True)\n",
       "        (relu1): ReLU(inplace)\n",
       "        (conv1): Conv2d(960, 192, kernel_size=(1, 1), stride=(1, 1), bias=False)\n",
       "        (norm2): BatchNorm2d(192, eps=1e-05, momentum=0.1, affine=True, track_running_stats=True)\n",
       "        (relu2): ReLU(inplace)\n",
       "        (conv2): Conv2d(192, 48, kernel_size=(3, 3), stride=(1, 1), padding=(1, 1), bias=False)\n",
       "      )\n",
       "      (denselayer14): _DenseLayer(\n",
       "        (norm1): BatchNorm2d(1008, eps=1e-05, momentum=0.1, affine=True, track_running_stats=True)\n",
       "        (relu1): ReLU(inplace)\n",
       "        (conv1): Conv2d(1008, 192, kernel_size=(1, 1), stride=(1, 1), bias=False)\n",
       "        (norm2): BatchNorm2d(192, eps=1e-05, momentum=0.1, affine=True, track_running_stats=True)\n",
       "        (relu2): ReLU(inplace)\n",
       "        (conv2): Conv2d(192, 48, kernel_size=(3, 3), stride=(1, 1), padding=(1, 1), bias=False)\n",
       "      )\n",
       "      (denselayer15): _DenseLayer(\n",
       "        (norm1): BatchNorm2d(1056, eps=1e-05, momentum=0.1, affine=True, track_running_stats=True)\n",
       "        (relu1): ReLU(inplace)\n",
       "        (conv1): Conv2d(1056, 192, kernel_size=(1, 1), stride=(1, 1), bias=False)\n",
       "        (norm2): BatchNorm2d(192, eps=1e-05, momentum=0.1, affine=True, track_running_stats=True)\n",
       "        (relu2): ReLU(inplace)\n",
       "        (conv2): Conv2d(192, 48, kernel_size=(3, 3), stride=(1, 1), padding=(1, 1), bias=False)\n",
       "      )\n",
       "      (denselayer16): _DenseLayer(\n",
       "        (norm1): BatchNorm2d(1104, eps=1e-05, momentum=0.1, affine=True, track_running_stats=True)\n",
       "        (relu1): ReLU(inplace)\n",
       "        (conv1): Conv2d(1104, 192, kernel_size=(1, 1), stride=(1, 1), bias=False)\n",
       "        (norm2): BatchNorm2d(192, eps=1e-05, momentum=0.1, affine=True, track_running_stats=True)\n",
       "        (relu2): ReLU(inplace)\n",
       "        (conv2): Conv2d(192, 48, kernel_size=(3, 3), stride=(1, 1), padding=(1, 1), bias=False)\n",
       "      )\n",
       "      (denselayer17): _DenseLayer(\n",
       "        (norm1): BatchNorm2d(1152, eps=1e-05, momentum=0.1, affine=True, track_running_stats=True)\n",
       "        (relu1): ReLU(inplace)\n",
       "        (conv1): Conv2d(1152, 192, kernel_size=(1, 1), stride=(1, 1), bias=False)\n",
       "        (norm2): BatchNorm2d(192, eps=1e-05, momentum=0.1, affine=True, track_running_stats=True)\n",
       "        (relu2): ReLU(inplace)\n",
       "        (conv2): Conv2d(192, 48, kernel_size=(3, 3), stride=(1, 1), padding=(1, 1), bias=False)\n",
       "      )\n",
       "      (denselayer18): _DenseLayer(\n",
       "        (norm1): BatchNorm2d(1200, eps=1e-05, momentum=0.1, affine=True, track_running_stats=True)\n",
       "        (relu1): ReLU(inplace)\n",
       "        (conv1): Conv2d(1200, 192, kernel_size=(1, 1), stride=(1, 1), bias=False)\n",
       "        (norm2): BatchNorm2d(192, eps=1e-05, momentum=0.1, affine=True, track_running_stats=True)\n",
       "        (relu2): ReLU(inplace)\n",
       "        (conv2): Conv2d(192, 48, kernel_size=(3, 3), stride=(1, 1), padding=(1, 1), bias=False)\n",
       "      )\n",
       "      (denselayer19): _DenseLayer(\n",
       "        (norm1): BatchNorm2d(1248, eps=1e-05, momentum=0.1, affine=True, track_running_stats=True)\n",
       "        (relu1): ReLU(inplace)\n",
       "        (conv1): Conv2d(1248, 192, kernel_size=(1, 1), stride=(1, 1), bias=False)\n",
       "        (norm2): BatchNorm2d(192, eps=1e-05, momentum=0.1, affine=True, track_running_stats=True)\n",
       "        (relu2): ReLU(inplace)\n",
       "        (conv2): Conv2d(192, 48, kernel_size=(3, 3), stride=(1, 1), padding=(1, 1), bias=False)\n",
       "      )\n",
       "      (denselayer20): _DenseLayer(\n",
       "        (norm1): BatchNorm2d(1296, eps=1e-05, momentum=0.1, affine=True, track_running_stats=True)\n",
       "        (relu1): ReLU(inplace)\n",
       "        (conv1): Conv2d(1296, 192, kernel_size=(1, 1), stride=(1, 1), bias=False)\n",
       "        (norm2): BatchNorm2d(192, eps=1e-05, momentum=0.1, affine=True, track_running_stats=True)\n",
       "        (relu2): ReLU(inplace)\n",
       "        (conv2): Conv2d(192, 48, kernel_size=(3, 3), stride=(1, 1), padding=(1, 1), bias=False)\n",
       "      )\n",
       "      (denselayer21): _DenseLayer(\n",
       "        (norm1): BatchNorm2d(1344, eps=1e-05, momentum=0.1, affine=True, track_running_stats=True)\n",
       "        (relu1): ReLU(inplace)\n",
       "        (conv1): Conv2d(1344, 192, kernel_size=(1, 1), stride=(1, 1), bias=False)\n",
       "        (norm2): BatchNorm2d(192, eps=1e-05, momentum=0.1, affine=True, track_running_stats=True)\n",
       "        (relu2): ReLU(inplace)\n",
       "        (conv2): Conv2d(192, 48, kernel_size=(3, 3), stride=(1, 1), padding=(1, 1), bias=False)\n",
       "      )\n",
       "      (denselayer22): _DenseLayer(\n",
       "        (norm1): BatchNorm2d(1392, eps=1e-05, momentum=0.1, affine=True, track_running_stats=True)\n",
       "        (relu1): ReLU(inplace)\n",
       "        (conv1): Conv2d(1392, 192, kernel_size=(1, 1), stride=(1, 1), bias=False)\n",
       "        (norm2): BatchNorm2d(192, eps=1e-05, momentum=0.1, affine=True, track_running_stats=True)\n",
       "        (relu2): ReLU(inplace)\n",
       "        (conv2): Conv2d(192, 48, kernel_size=(3, 3), stride=(1, 1), padding=(1, 1), bias=False)\n",
       "      )\n",
       "      (denselayer23): _DenseLayer(\n",
       "        (norm1): BatchNorm2d(1440, eps=1e-05, momentum=0.1, affine=True, track_running_stats=True)\n",
       "        (relu1): ReLU(inplace)\n",
       "        (conv1): Conv2d(1440, 192, kernel_size=(1, 1), stride=(1, 1), bias=False)\n",
       "        (norm2): BatchNorm2d(192, eps=1e-05, momentum=0.1, affine=True, track_running_stats=True)\n",
       "        (relu2): ReLU(inplace)\n",
       "        (conv2): Conv2d(192, 48, kernel_size=(3, 3), stride=(1, 1), padding=(1, 1), bias=False)\n",
       "      )\n",
       "      (denselayer24): _DenseLayer(\n",
       "        (norm1): BatchNorm2d(1488, eps=1e-05, momentum=0.1, affine=True, track_running_stats=True)\n",
       "        (relu1): ReLU(inplace)\n",
       "        (conv1): Conv2d(1488, 192, kernel_size=(1, 1), stride=(1, 1), bias=False)\n",
       "        (norm2): BatchNorm2d(192, eps=1e-05, momentum=0.1, affine=True, track_running_stats=True)\n",
       "        (relu2): ReLU(inplace)\n",
       "        (conv2): Conv2d(192, 48, kernel_size=(3, 3), stride=(1, 1), padding=(1, 1), bias=False)\n",
       "      )\n",
       "      (denselayer25): _DenseLayer(\n",
       "        (norm1): BatchNorm2d(1536, eps=1e-05, momentum=0.1, affine=True, track_running_stats=True)\n",
       "        (relu1): ReLU(inplace)\n",
       "        (conv1): Conv2d(1536, 192, kernel_size=(1, 1), stride=(1, 1), bias=False)\n",
       "        (norm2): BatchNorm2d(192, eps=1e-05, momentum=0.1, affine=True, track_running_stats=True)\n",
       "        (relu2): ReLU(inplace)\n",
       "        (conv2): Conv2d(192, 48, kernel_size=(3, 3), stride=(1, 1), padding=(1, 1), bias=False)\n",
       "      )\n",
       "      (denselayer26): _DenseLayer(\n",
       "        (norm1): BatchNorm2d(1584, eps=1e-05, momentum=0.1, affine=True, track_running_stats=True)\n",
       "        (relu1): ReLU(inplace)\n",
       "        (conv1): Conv2d(1584, 192, kernel_size=(1, 1), stride=(1, 1), bias=False)\n",
       "        (norm2): BatchNorm2d(192, eps=1e-05, momentum=0.1, affine=True, track_running_stats=True)\n",
       "        (relu2): ReLU(inplace)\n",
       "        (conv2): Conv2d(192, 48, kernel_size=(3, 3), stride=(1, 1), padding=(1, 1), bias=False)\n",
       "      )\n",
       "      (denselayer27): _DenseLayer(\n",
       "        (norm1): BatchNorm2d(1632, eps=1e-05, momentum=0.1, affine=True, track_running_stats=True)\n",
       "        (relu1): ReLU(inplace)\n",
       "        (conv1): Conv2d(1632, 192, kernel_size=(1, 1), stride=(1, 1), bias=False)\n",
       "        (norm2): BatchNorm2d(192, eps=1e-05, momentum=0.1, affine=True, track_running_stats=True)\n",
       "        (relu2): ReLU(inplace)\n",
       "        (conv2): Conv2d(192, 48, kernel_size=(3, 3), stride=(1, 1), padding=(1, 1), bias=False)\n",
       "      )\n",
       "      (denselayer28): _DenseLayer(\n",
       "        (norm1): BatchNorm2d(1680, eps=1e-05, momentum=0.1, affine=True, track_running_stats=True)\n",
       "        (relu1): ReLU(inplace)\n",
       "        (conv1): Conv2d(1680, 192, kernel_size=(1, 1), stride=(1, 1), bias=False)\n",
       "        (norm2): BatchNorm2d(192, eps=1e-05, momentum=0.1, affine=True, track_running_stats=True)\n",
       "        (relu2): ReLU(inplace)\n",
       "        (conv2): Conv2d(192, 48, kernel_size=(3, 3), stride=(1, 1), padding=(1, 1), bias=False)\n",
       "      )\n",
       "      (denselayer29): _DenseLayer(\n",
       "        (norm1): BatchNorm2d(1728, eps=1e-05, momentum=0.1, affine=True, track_running_stats=True)\n",
       "        (relu1): ReLU(inplace)\n",
       "        (conv1): Conv2d(1728, 192, kernel_size=(1, 1), stride=(1, 1), bias=False)\n",
       "        (norm2): BatchNorm2d(192, eps=1e-05, momentum=0.1, affine=True, track_running_stats=True)\n",
       "        (relu2): ReLU(inplace)\n",
       "        (conv2): Conv2d(192, 48, kernel_size=(3, 3), stride=(1, 1), padding=(1, 1), bias=False)\n",
       "      )\n",
       "      (denselayer30): _DenseLayer(\n",
       "        (norm1): BatchNorm2d(1776, eps=1e-05, momentum=0.1, affine=True, track_running_stats=True)\n",
       "        (relu1): ReLU(inplace)\n",
       "        (conv1): Conv2d(1776, 192, kernel_size=(1, 1), stride=(1, 1), bias=False)\n",
       "        (norm2): BatchNorm2d(192, eps=1e-05, momentum=0.1, affine=True, track_running_stats=True)\n",
       "        (relu2): ReLU(inplace)\n",
       "        (conv2): Conv2d(192, 48, kernel_size=(3, 3), stride=(1, 1), padding=(1, 1), bias=False)\n",
       "      )\n",
       "      (denselayer31): _DenseLayer(\n",
       "        (norm1): BatchNorm2d(1824, eps=1e-05, momentum=0.1, affine=True, track_running_stats=True)\n",
       "        (relu1): ReLU(inplace)\n",
       "        (conv1): Conv2d(1824, 192, kernel_size=(1, 1), stride=(1, 1), bias=False)\n",
       "        (norm2): BatchNorm2d(192, eps=1e-05, momentum=0.1, affine=True, track_running_stats=True)\n",
       "        (relu2): ReLU(inplace)\n",
       "        (conv2): Conv2d(192, 48, kernel_size=(3, 3), stride=(1, 1), padding=(1, 1), bias=False)\n",
       "      )\n",
       "      (denselayer32): _DenseLayer(\n",
       "        (norm1): BatchNorm2d(1872, eps=1e-05, momentum=0.1, affine=True, track_running_stats=True)\n",
       "        (relu1): ReLU(inplace)\n",
       "        (conv1): Conv2d(1872, 192, kernel_size=(1, 1), stride=(1, 1), bias=False)\n",
       "        (norm2): BatchNorm2d(192, eps=1e-05, momentum=0.1, affine=True, track_running_stats=True)\n",
       "        (relu2): ReLU(inplace)\n",
       "        (conv2): Conv2d(192, 48, kernel_size=(3, 3), stride=(1, 1), padding=(1, 1), bias=False)\n",
       "      )\n",
       "      (denselayer33): _DenseLayer(\n",
       "        (norm1): BatchNorm2d(1920, eps=1e-05, momentum=0.1, affine=True, track_running_stats=True)\n",
       "        (relu1): ReLU(inplace)\n",
       "        (conv1): Conv2d(1920, 192, kernel_size=(1, 1), stride=(1, 1), bias=False)\n",
       "        (norm2): BatchNorm2d(192, eps=1e-05, momentum=0.1, affine=True, track_running_stats=True)\n",
       "        (relu2): ReLU(inplace)\n",
       "        (conv2): Conv2d(192, 48, kernel_size=(3, 3), stride=(1, 1), padding=(1, 1), bias=False)\n",
       "      )\n",
       "      (denselayer34): _DenseLayer(\n",
       "        (norm1): BatchNorm2d(1968, eps=1e-05, momentum=0.1, affine=True, track_running_stats=True)\n",
       "        (relu1): ReLU(inplace)\n",
       "        (conv1): Conv2d(1968, 192, kernel_size=(1, 1), stride=(1, 1), bias=False)\n",
       "        (norm2): BatchNorm2d(192, eps=1e-05, momentum=0.1, affine=True, track_running_stats=True)\n",
       "        (relu2): ReLU(inplace)\n",
       "        (conv2): Conv2d(192, 48, kernel_size=(3, 3), stride=(1, 1), padding=(1, 1), bias=False)\n",
       "      )\n",
       "      (denselayer35): _DenseLayer(\n",
       "        (norm1): BatchNorm2d(2016, eps=1e-05, momentum=0.1, affine=True, track_running_stats=True)\n",
       "        (relu1): ReLU(inplace)\n",
       "        (conv1): Conv2d(2016, 192, kernel_size=(1, 1), stride=(1, 1), bias=False)\n",
       "        (norm2): BatchNorm2d(192, eps=1e-05, momentum=0.1, affine=True, track_running_stats=True)\n",
       "        (relu2): ReLU(inplace)\n",
       "        (conv2): Conv2d(192, 48, kernel_size=(3, 3), stride=(1, 1), padding=(1, 1), bias=False)\n",
       "      )\n",
       "      (denselayer36): _DenseLayer(\n",
       "        (norm1): BatchNorm2d(2064, eps=1e-05, momentum=0.1, affine=True, track_running_stats=True)\n",
       "        (relu1): ReLU(inplace)\n",
       "        (conv1): Conv2d(2064, 192, kernel_size=(1, 1), stride=(1, 1), bias=False)\n",
       "        (norm2): BatchNorm2d(192, eps=1e-05, momentum=0.1, affine=True, track_running_stats=True)\n",
       "        (relu2): ReLU(inplace)\n",
       "        (conv2): Conv2d(192, 48, kernel_size=(3, 3), stride=(1, 1), padding=(1, 1), bias=False)\n",
       "      )\n",
       "    )\n",
       "    (transition3): _Transition(\n",
       "      (norm): BatchNorm2d(2112, eps=1e-05, momentum=0.1, affine=True, track_running_stats=True)\n",
       "      (relu): ReLU(inplace)\n",
       "      (conv): Conv2d(2112, 1056, kernel_size=(1, 1), stride=(1, 1), bias=False)\n",
       "      (pool): AvgPool2d(kernel_size=2, stride=2, padding=0)\n",
       "    )\n",
       "    (denseblock4): _DenseBlock(\n",
       "      (denselayer1): _DenseLayer(\n",
       "        (norm1): BatchNorm2d(1056, eps=1e-05, momentum=0.1, affine=True, track_running_stats=True)\n",
       "        (relu1): ReLU(inplace)\n",
       "        (conv1): Conv2d(1056, 192, kernel_size=(1, 1), stride=(1, 1), bias=False)\n",
       "        (norm2): BatchNorm2d(192, eps=1e-05, momentum=0.1, affine=True, track_running_stats=True)\n",
       "        (relu2): ReLU(inplace)\n",
       "        (conv2): Conv2d(192, 48, kernel_size=(3, 3), stride=(1, 1), padding=(1, 1), bias=False)\n",
       "      )\n",
       "      (denselayer2): _DenseLayer(\n",
       "        (norm1): BatchNorm2d(1104, eps=1e-05, momentum=0.1, affine=True, track_running_stats=True)\n",
       "        (relu1): ReLU(inplace)\n",
       "        (conv1): Conv2d(1104, 192, kernel_size=(1, 1), stride=(1, 1), bias=False)\n",
       "        (norm2): BatchNorm2d(192, eps=1e-05, momentum=0.1, affine=True, track_running_stats=True)\n",
       "        (relu2): ReLU(inplace)\n",
       "        (conv2): Conv2d(192, 48, kernel_size=(3, 3), stride=(1, 1), padding=(1, 1), bias=False)\n",
       "      )\n",
       "      (denselayer3): _DenseLayer(\n",
       "        (norm1): BatchNorm2d(1152, eps=1e-05, momentum=0.1, affine=True, track_running_stats=True)\n",
       "        (relu1): ReLU(inplace)\n",
       "        (conv1): Conv2d(1152, 192, kernel_size=(1, 1), stride=(1, 1), bias=False)\n",
       "        (norm2): BatchNorm2d(192, eps=1e-05, momentum=0.1, affine=True, track_running_stats=True)\n",
       "        (relu2): ReLU(inplace)\n",
       "        (conv2): Conv2d(192, 48, kernel_size=(3, 3), stride=(1, 1), padding=(1, 1), bias=False)\n",
       "      )\n",
       "      (denselayer4): _DenseLayer(\n",
       "        (norm1): BatchNorm2d(1200, eps=1e-05, momentum=0.1, affine=True, track_running_stats=True)\n",
       "        (relu1): ReLU(inplace)\n",
       "        (conv1): Conv2d(1200, 192, kernel_size=(1, 1), stride=(1, 1), bias=False)\n",
       "        (norm2): BatchNorm2d(192, eps=1e-05, momentum=0.1, affine=True, track_running_stats=True)\n",
       "        (relu2): ReLU(inplace)\n",
       "        (conv2): Conv2d(192, 48, kernel_size=(3, 3), stride=(1, 1), padding=(1, 1), bias=False)\n",
       "      )\n",
       "      (denselayer5): _DenseLayer(\n",
       "        (norm1): BatchNorm2d(1248, eps=1e-05, momentum=0.1, affine=True, track_running_stats=True)\n",
       "        (relu1): ReLU(inplace)\n",
       "        (conv1): Conv2d(1248, 192, kernel_size=(1, 1), stride=(1, 1), bias=False)\n",
       "        (norm2): BatchNorm2d(192, eps=1e-05, momentum=0.1, affine=True, track_running_stats=True)\n",
       "        (relu2): ReLU(inplace)\n",
       "        (conv2): Conv2d(192, 48, kernel_size=(3, 3), stride=(1, 1), padding=(1, 1), bias=False)\n",
       "      )\n",
       "      (denselayer6): _DenseLayer(\n",
       "        (norm1): BatchNorm2d(1296, eps=1e-05, momentum=0.1, affine=True, track_running_stats=True)\n",
       "        (relu1): ReLU(inplace)\n",
       "        (conv1): Conv2d(1296, 192, kernel_size=(1, 1), stride=(1, 1), bias=False)\n",
       "        (norm2): BatchNorm2d(192, eps=1e-05, momentum=0.1, affine=True, track_running_stats=True)\n",
       "        (relu2): ReLU(inplace)\n",
       "        (conv2): Conv2d(192, 48, kernel_size=(3, 3), stride=(1, 1), padding=(1, 1), bias=False)\n",
       "      )\n",
       "      (denselayer7): _DenseLayer(\n",
       "        (norm1): BatchNorm2d(1344, eps=1e-05, momentum=0.1, affine=True, track_running_stats=True)\n",
       "        (relu1): ReLU(inplace)\n",
       "        (conv1): Conv2d(1344, 192, kernel_size=(1, 1), stride=(1, 1), bias=False)\n",
       "        (norm2): BatchNorm2d(192, eps=1e-05, momentum=0.1, affine=True, track_running_stats=True)\n",
       "        (relu2): ReLU(inplace)\n",
       "        (conv2): Conv2d(192, 48, kernel_size=(3, 3), stride=(1, 1), padding=(1, 1), bias=False)\n",
       "      )\n",
       "      (denselayer8): _DenseLayer(\n",
       "        (norm1): BatchNorm2d(1392, eps=1e-05, momentum=0.1, affine=True, track_running_stats=True)\n",
       "        (relu1): ReLU(inplace)\n",
       "        (conv1): Conv2d(1392, 192, kernel_size=(1, 1), stride=(1, 1), bias=False)\n",
       "        (norm2): BatchNorm2d(192, eps=1e-05, momentum=0.1, affine=True, track_running_stats=True)\n",
       "        (relu2): ReLU(inplace)\n",
       "        (conv2): Conv2d(192, 48, kernel_size=(3, 3), stride=(1, 1), padding=(1, 1), bias=False)\n",
       "      )\n",
       "      (denselayer9): _DenseLayer(\n",
       "        (norm1): BatchNorm2d(1440, eps=1e-05, momentum=0.1, affine=True, track_running_stats=True)\n",
       "        (relu1): ReLU(inplace)\n",
       "        (conv1): Conv2d(1440, 192, kernel_size=(1, 1), stride=(1, 1), bias=False)\n",
       "        (norm2): BatchNorm2d(192, eps=1e-05, momentum=0.1, affine=True, track_running_stats=True)\n",
       "        (relu2): ReLU(inplace)\n",
       "        (conv2): Conv2d(192, 48, kernel_size=(3, 3), stride=(1, 1), padding=(1, 1), bias=False)\n",
       "      )\n",
       "      (denselayer10): _DenseLayer(\n",
       "        (norm1): BatchNorm2d(1488, eps=1e-05, momentum=0.1, affine=True, track_running_stats=True)\n",
       "        (relu1): ReLU(inplace)\n",
       "        (conv1): Conv2d(1488, 192, kernel_size=(1, 1), stride=(1, 1), bias=False)\n",
       "        (norm2): BatchNorm2d(192, eps=1e-05, momentum=0.1, affine=True, track_running_stats=True)\n",
       "        (relu2): ReLU(inplace)\n",
       "        (conv2): Conv2d(192, 48, kernel_size=(3, 3), stride=(1, 1), padding=(1, 1), bias=False)\n",
       "      )\n",
       "      (denselayer11): _DenseLayer(\n",
       "        (norm1): BatchNorm2d(1536, eps=1e-05, momentum=0.1, affine=True, track_running_stats=True)\n",
       "        (relu1): ReLU(inplace)\n",
       "        (conv1): Conv2d(1536, 192, kernel_size=(1, 1), stride=(1, 1), bias=False)\n",
       "        (norm2): BatchNorm2d(192, eps=1e-05, momentum=0.1, affine=True, track_running_stats=True)\n",
       "        (relu2): ReLU(inplace)\n",
       "        (conv2): Conv2d(192, 48, kernel_size=(3, 3), stride=(1, 1), padding=(1, 1), bias=False)\n",
       "      )\n",
       "      (denselayer12): _DenseLayer(\n",
       "        (norm1): BatchNorm2d(1584, eps=1e-05, momentum=0.1, affine=True, track_running_stats=True)\n",
       "        (relu1): ReLU(inplace)\n",
       "        (conv1): Conv2d(1584, 192, kernel_size=(1, 1), stride=(1, 1), bias=False)\n",
       "        (norm2): BatchNorm2d(192, eps=1e-05, momentum=0.1, affine=True, track_running_stats=True)\n",
       "        (relu2): ReLU(inplace)\n",
       "        (conv2): Conv2d(192, 48, kernel_size=(3, 3), stride=(1, 1), padding=(1, 1), bias=False)\n",
       "      )\n",
       "      (denselayer13): _DenseLayer(\n",
       "        (norm1): BatchNorm2d(1632, eps=1e-05, momentum=0.1, affine=True, track_running_stats=True)\n",
       "        (relu1): ReLU(inplace)\n",
       "        (conv1): Conv2d(1632, 192, kernel_size=(1, 1), stride=(1, 1), bias=False)\n",
       "        (norm2): BatchNorm2d(192, eps=1e-05, momentum=0.1, affine=True, track_running_stats=True)\n",
       "        (relu2): ReLU(inplace)\n",
       "        (conv2): Conv2d(192, 48, kernel_size=(3, 3), stride=(1, 1), padding=(1, 1), bias=False)\n",
       "      )\n",
       "      (denselayer14): _DenseLayer(\n",
       "        (norm1): BatchNorm2d(1680, eps=1e-05, momentum=0.1, affine=True, track_running_stats=True)\n",
       "        (relu1): ReLU(inplace)\n",
       "        (conv1): Conv2d(1680, 192, kernel_size=(1, 1), stride=(1, 1), bias=False)\n",
       "        (norm2): BatchNorm2d(192, eps=1e-05, momentum=0.1, affine=True, track_running_stats=True)\n",
       "        (relu2): ReLU(inplace)\n",
       "        (conv2): Conv2d(192, 48, kernel_size=(3, 3), stride=(1, 1), padding=(1, 1), bias=False)\n",
       "      )\n",
       "      (denselayer15): _DenseLayer(\n",
       "        (norm1): BatchNorm2d(1728, eps=1e-05, momentum=0.1, affine=True, track_running_stats=True)\n",
       "        (relu1): ReLU(inplace)\n",
       "        (conv1): Conv2d(1728, 192, kernel_size=(1, 1), stride=(1, 1), bias=False)\n",
       "        (norm2): BatchNorm2d(192, eps=1e-05, momentum=0.1, affine=True, track_running_stats=True)\n",
       "        (relu2): ReLU(inplace)\n",
       "        (conv2): Conv2d(192, 48, kernel_size=(3, 3), stride=(1, 1), padding=(1, 1), bias=False)\n",
       "      )\n",
       "      (denselayer16): _DenseLayer(\n",
       "        (norm1): BatchNorm2d(1776, eps=1e-05, momentum=0.1, affine=True, track_running_stats=True)\n",
       "        (relu1): ReLU(inplace)\n",
       "        (conv1): Conv2d(1776, 192, kernel_size=(1, 1), stride=(1, 1), bias=False)\n",
       "        (norm2): BatchNorm2d(192, eps=1e-05, momentum=0.1, affine=True, track_running_stats=True)\n",
       "        (relu2): ReLU(inplace)\n",
       "        (conv2): Conv2d(192, 48, kernel_size=(3, 3), stride=(1, 1), padding=(1, 1), bias=False)\n",
       "      )\n",
       "      (denselayer17): _DenseLayer(\n",
       "        (norm1): BatchNorm2d(1824, eps=1e-05, momentum=0.1, affine=True, track_running_stats=True)\n",
       "        (relu1): ReLU(inplace)\n",
       "        (conv1): Conv2d(1824, 192, kernel_size=(1, 1), stride=(1, 1), bias=False)\n",
       "        (norm2): BatchNorm2d(192, eps=1e-05, momentum=0.1, affine=True, track_running_stats=True)\n",
       "        (relu2): ReLU(inplace)\n",
       "        (conv2): Conv2d(192, 48, kernel_size=(3, 3), stride=(1, 1), padding=(1, 1), bias=False)\n",
       "      )\n",
       "      (denselayer18): _DenseLayer(\n",
       "        (norm1): BatchNorm2d(1872, eps=1e-05, momentum=0.1, affine=True, track_running_stats=True)\n",
       "        (relu1): ReLU(inplace)\n",
       "        (conv1): Conv2d(1872, 192, kernel_size=(1, 1), stride=(1, 1), bias=False)\n",
       "        (norm2): BatchNorm2d(192, eps=1e-05, momentum=0.1, affine=True, track_running_stats=True)\n",
       "        (relu2): ReLU(inplace)\n",
       "        (conv2): Conv2d(192, 48, kernel_size=(3, 3), stride=(1, 1), padding=(1, 1), bias=False)\n",
       "      )\n",
       "      (denselayer19): _DenseLayer(\n",
       "        (norm1): BatchNorm2d(1920, eps=1e-05, momentum=0.1, affine=True, track_running_stats=True)\n",
       "        (relu1): ReLU(inplace)\n",
       "        (conv1): Conv2d(1920, 192, kernel_size=(1, 1), stride=(1, 1), bias=False)\n",
       "        (norm2): BatchNorm2d(192, eps=1e-05, momentum=0.1, affine=True, track_running_stats=True)\n",
       "        (relu2): ReLU(inplace)\n",
       "        (conv2): Conv2d(192, 48, kernel_size=(3, 3), stride=(1, 1), padding=(1, 1), bias=False)\n",
       "      )\n",
       "      (denselayer20): _DenseLayer(\n",
       "        (norm1): BatchNorm2d(1968, eps=1e-05, momentum=0.1, affine=True, track_running_stats=True)\n",
       "        (relu1): ReLU(inplace)\n",
       "        (conv1): Conv2d(1968, 192, kernel_size=(1, 1), stride=(1, 1), bias=False)\n",
       "        (norm2): BatchNorm2d(192, eps=1e-05, momentum=0.1, affine=True, track_running_stats=True)\n",
       "        (relu2): ReLU(inplace)\n",
       "        (conv2): Conv2d(192, 48, kernel_size=(3, 3), stride=(1, 1), padding=(1, 1), bias=False)\n",
       "      )\n",
       "      (denselayer21): _DenseLayer(\n",
       "        (norm1): BatchNorm2d(2016, eps=1e-05, momentum=0.1, affine=True, track_running_stats=True)\n",
       "        (relu1): ReLU(inplace)\n",
       "        (conv1): Conv2d(2016, 192, kernel_size=(1, 1), stride=(1, 1), bias=False)\n",
       "        (norm2): BatchNorm2d(192, eps=1e-05, momentum=0.1, affine=True, track_running_stats=True)\n",
       "        (relu2): ReLU(inplace)\n",
       "        (conv2): Conv2d(192, 48, kernel_size=(3, 3), stride=(1, 1), padding=(1, 1), bias=False)\n",
       "      )\n",
       "      (denselayer22): _DenseLayer(\n",
       "        (norm1): BatchNorm2d(2064, eps=1e-05, momentum=0.1, affine=True, track_running_stats=True)\n",
       "        (relu1): ReLU(inplace)\n",
       "        (conv1): Conv2d(2064, 192, kernel_size=(1, 1), stride=(1, 1), bias=False)\n",
       "        (norm2): BatchNorm2d(192, eps=1e-05, momentum=0.1, affine=True, track_running_stats=True)\n",
       "        (relu2): ReLU(inplace)\n",
       "        (conv2): Conv2d(192, 48, kernel_size=(3, 3), stride=(1, 1), padding=(1, 1), bias=False)\n",
       "      )\n",
       "      (denselayer23): _DenseLayer(\n",
       "        (norm1): BatchNorm2d(2112, eps=1e-05, momentum=0.1, affine=True, track_running_stats=True)\n",
       "        (relu1): ReLU(inplace)\n",
       "        (conv1): Conv2d(2112, 192, kernel_size=(1, 1), stride=(1, 1), bias=False)\n",
       "        (norm2): BatchNorm2d(192, eps=1e-05, momentum=0.1, affine=True, track_running_stats=True)\n",
       "        (relu2): ReLU(inplace)\n",
       "        (conv2): Conv2d(192, 48, kernel_size=(3, 3), stride=(1, 1), padding=(1, 1), bias=False)\n",
       "      )\n",
       "      (denselayer24): _DenseLayer(\n",
       "        (norm1): BatchNorm2d(2160, eps=1e-05, momentum=0.1, affine=True, track_running_stats=True)\n",
       "        (relu1): ReLU(inplace)\n",
       "        (conv1): Conv2d(2160, 192, kernel_size=(1, 1), stride=(1, 1), bias=False)\n",
       "        (norm2): BatchNorm2d(192, eps=1e-05, momentum=0.1, affine=True, track_running_stats=True)\n",
       "        (relu2): ReLU(inplace)\n",
       "        (conv2): Conv2d(192, 48, kernel_size=(3, 3), stride=(1, 1), padding=(1, 1), bias=False)\n",
       "      )\n",
       "    )\n",
       "    (norm5): BatchNorm2d(2208, eps=1e-05, momentum=0.1, affine=True, track_running_stats=True)\n",
       "  )\n",
       "  (classifier): Linear(in_features=2208, out_features=1000, bias=True)\n",
       ")"
      ]
     },
     "execution_count": 19,
     "metadata": {},
     "output_type": "execute_result"
    }
   ],
   "source": [
    "torchvision.models.densenet161(pretrained=True)"
   ]
  },
  {
   "cell_type": "code",
   "execution_count": 20,
   "metadata": {},
   "outputs": [],
   "source": [
    "device = torch.device(\"cuda:0\" if torch.cuda.is_available() else \"cpu\")\n",
…
   "metadata": {},
   "source": [
    "### Shuffle Net"
   ]
  },
  {
   "cell_type": "code",
   "execution_count": 201,
   "metadata": {
    "scrolled": true
   },
   "outputs": [
    {
     "name": "stderr",
     "output_type": "stream",
     "text": [
      "Downloading: \"https://download.pytorch.org/models/shufflenetv2_x1-5666bf0f80.pth\" to /Users/nathenhuang/.cache/torch/checkpoints/shufflenetv2_x1-5666bf0f80.pth\n",
      "100%|| 8.79M/8.79M [00:01<00:00, 5.42MB/s]\n"
     ]
    },
    {
     "data": {
      "text/plain": [
       "ShuffleNetV2(\n",
       "  (conv1): Sequential(\n",
       "    (0): Conv2d(3, 24, kernel_size=(3, 3), stride=(2, 2), padding=(1, 1), bias=False)\n",
       "    (1): BatchNorm2d(24, eps=1e-05, momentum=0.1, affine=True, track_running_stats=True)\n",
       "    (2): ReLU(inplace=True)\n",
       "  )\n",
       "  (maxpool): MaxPool2d(kernel_size=3, stride=2, padding=1, dilation=1, ceil_mode=False)\n",
       "  (stage2): Sequential(\n",
       "    (0): InvertedResidual(\n",
       "      (branch1): Sequential(\n",
       "        (0): Conv2d(24, 24, kernel_size=(3, 3), stride=(2, 2), padding=(1, 1), groups=24, bias=False)\n",
       "        (1): BatchNorm2d(24, eps=1e-05, momentum=0.1, affine=True, track_running_stats=True)\n",
       "        (2): Conv2d(24, 58, kernel_size=(1, 1), stride=(1, 1), bias=False)\n",
       "        (3): BatchNorm2d(58, eps=1e-05, momentum=0.1, affine=True, track_running_stats=True)\n",
       "        (4): ReLU(inplace=True)\n",
       "      )\n",
       "      (branch2): Sequential(\n",
       "        (0): Conv2d(24, 58, kernel_size=(1, 1), stride=(1, 1), bias=False)\n",
       "        (1): BatchNorm2d(58, eps=1e-05, momentum=0.1, affine=True, track_running_stats=True)\n",
       "        (2): ReLU(inplace=True)\n",
       "        (3): Conv2d(58, 58, kernel_size=(3, 3), stride=(2, 2), padding=(1, 1), groups=58, bias=False)\n",
       "        (4): BatchNorm2d(58, eps=1e-05, momentum=0.1, affine=True, track_running_stats=True)\n",
       "        (5): Conv2d(58, 58, kernel_size=(1, 1), stride=(1, 1), bias=False)\n",
       "        (6): BatchNorm2d(58, eps=1e-05, momentum=0.1, affine=True, track_running_stats=True)\n",
       "        (7): ReLU(inplace=True)\n",
       "      )\n",
       "    )\n",
       "    (1): InvertedResidual(\n",
       "      (branch2): Sequential(\n",
       "        (0): Conv2d(58, 58, kernel_size=(1, 1), stride=(1, 1), bias=False)\n",
       "        (1): BatchNorm2d(58, eps=1e-05, momentum=0.1, affine=True, track_running_stats=True)\n",
       "        (2): ReLU(inplace=True)\n",
       "        (3): Conv2d(58, 58, kernel_size=(3, 3), stride=(1, 1), padding=(1, 1), groups=58, bias=False)\n",
       "        (4): BatchNorm2d(58, eps=1e-05, momentum=0.1, affine=True, track_running_stats=True)\n",
       "        (5): Conv2d(58, 58, kernel_size=(1, 1), stride=(1, 1), bias=False)\n",
       "        (6): BatchNorm2d(58, eps=1e-05, momentum=0.1, affine=True, track_running_stats=True)\n",
       "        (7): ReLU(inplace=True)\n",
       "      )\n",
       "    )\n",
       "    (2): InvertedResidual(\n",
       "      (branch2): Sequential(\n",
       "        (0): Conv2d(58, 58, kernel_size=(1, 1), stride=(1, 1), bias=False)\n",
       "        (1): BatchNorm2d(58, eps=1e-05, momentum=0.1, affine=True, track_running_stats=True)\n",
       "        (2): ReLU(inplace=True)\n",
       "        (3): Conv2d(58, 58, kernel_size=(3, 3), stride=(1, 1), padding=(1, 1), groups=58, bias=False)\n",
       "        (4): BatchNorm2d(58, eps=1e-05, momentum=0.1, affine=True, track_running_stats=True)\n",
       "        (5): Conv2d(58, 58, kernel_size=(1, 1), stride=(1, 1), bias=False)\n",
       "        (6): BatchNorm2d(58, eps=1e-05, momentum=0.1, affine=True, track_running_stats=True)\n",
       "        (7): ReLU(inplace=True)\n",
       "      )\n",
       "    )\n",
       "    (3): InvertedResidual(\n",
       "      (branch2): Sequential(\n",
       "        (0): Conv2d(58, 58, kernel_size=(1, 1), stride=(1, 1), bias=False)\n",
       "        (1): BatchNorm2d(58, eps=1e-05, momentum=0.1, affine=True, track_running_stats=True)\n",
       "        (2): ReLU(inplace=True)\n",
       "        (3): Conv2d(58, 58, kernel_size=(3, 3), stride=(1, 1), padding=(1, 1), groups=58, bias=False)\n",
       "        (4): BatchNorm2d(58, eps=1e-05, momentum=0.1, affine=True, track_running_stats=True)\n",
       "        (5): Conv2d(58, 58, kernel_size=(1, 1), stride=(1, 1), bias=False)\n",
       "        (6): BatchNorm2d(58, eps=1e-05, momentum=0.1, affine=True, track_running_stats=True)\n",
       "        (7): ReLU(inplace=True)\n",
       "      )\n",
       "    )\n",
       "  )\n",
       "  (stage3): Sequential(\n",
       "    (0): InvertedResidual(\n",
       "      (branch1): Sequential(\n",
       "        (0): Conv2d(116, 116, kernel_size=(3, 3), stride=(2, 2), padding=(1, 1), groups=116, bias=False)\n",
       "        (1): BatchNorm2d(116, eps=1e-05, momentum=0.1, affine=True, track_running_stats=True)\n",
       "        (2): Conv2d(116, 116, kernel_size=(1, 1), stride=(1, 1), bias=False)\n",
       "        (3): BatchNorm2d(116, eps=1e-05, momentum=0.1, affine=True, track_running_stats=True)\n",
       "        (4): ReLU(inplace=True)\n",
       "      )\n",
       "      (branch2): Sequential(\n",
       "        (0): Conv2d(116, 116, kernel_size=(1, 1), stride=(1, 1), bias=False)\n",
       "        (1): BatchNorm2d(116, eps=1e-05, momentum=0.1, affine=True, track_running_stats=True)\n",
       "        (2): ReLU(inplace=True)\n",
       "        (3): Conv2d(116, 116, kernel_size=(3, 3), stride=(2, 2), padding=(1, 1), groups=116, bias=False)\n",
       "        (4): BatchNorm2d(116, eps=1e-05, momentum=0.1, affine=True, track_running_stats=True)\n",
       "        (5): Conv2d(116, 116, kernel_size=(1, 1), stride=(1, 1), bias=False)\n",
       "        (6): BatchNorm2d(116, eps=1e-05, momentum=0.1, affine=True, track_running_stats=True)\n",
       "        (7): ReLU(inplace=True)\n",
       "      )\n",
       "    )\n",
       "    (1): InvertedResidual(\n",
       "      (branch2): Sequential(\n",
       "        (0): Conv2d(116, 116, kernel_size=(1, 1), stride=(1, 1), bias=False)\n",
       "        (1): BatchNorm2d(116, eps=1e-05, momentum=0.1, affine=True, track_running_stats=True)\n",
       "        (2): ReLU(inplace=True)\n",
       "        (3): Conv2d(116, 116, kernel_size=(3, 3), stride=(1, 1), padding=(1, 1), groups=116, bias=False)\n",
       "        (4): BatchNorm2d(116, eps=1e-05, momentum=0.1, affine=True, track_running_stats=True)\n",
       "        (5): Conv2d(116, 116, kernel_size=(1, 1), stride=(1, 1), bias=False)\n",
       "        (6): BatchNorm2d(116, eps=1e-05, momentum=0.1, affine=True, track_running_stats=True)\n",
       "        (7): ReLU(inplace=True)\n",
       "      )\n",
       "    )\n",
       "    (2): InvertedResidual(\n",
       "      (branch2): Sequential(\n",
       "        (0): Conv2d(116, 116, kernel_size=(1, 1), stride=(1, 1), bias=False)\n",
       "        (1): BatchNorm2d(116, eps=1e-05, momentum=0.1, affine=True, track_running_stats=True)\n",
       "        (2): ReLU(inplace=True)\n",
       "        (3): Conv2d(116, 116, kernel_size=(3, 3), stride=(1, 1), padding=(1, 1), groups=116, bias=False)\n",
       "        (4): BatchNorm2d(116, eps=1e-05, momentum=0.1, affine=True, track_running_stats=True)\n",
       "        (5): Conv2d(116, 116, kernel_size=(1, 1), stride=(1, 1), bias=False)\n",
       "        (6): BatchNorm2d(116, eps=1e-05, momentum=0.1, affine=True, track_running_stats=True)\n",
       "        (7): ReLU(inplace=True)\n",
       "      )\n",
       "    )\n",
       "    (3): InvertedResidual(\n",
       "      (branch2): Sequential(\n",
       "        (0): Conv2d(116, 116, kernel_size=(1, 1), stride=(1, 1), bias=False)\n",
       "        (1): BatchNorm2d(116, eps=1e-05, momentum=0.1, affine=True, track_running_stats=True)\n",
       "        (2): ReLU(inplace=True)\n",
       "        (3): Conv2d(116, 116, kernel_size=(3, 3), stride=(1, 1), padding=(1, 1), groups=116, bias=False)\n",
       "        (4): BatchNorm2d(116, eps=1e-05, momentum=0.1, affine=True, track_running_stats=True)\n",
       "        (5): Conv2d(116, 116, kernel_size=(1, 1), stride=(1, 1), bias=False)\n",
       "        (6): BatchNorm2d(116, eps=1e-05, momentum=0.1, affine=True, track_running_stats=True)\n",
       "        (7): ReLU(inplace=True)\n",
       "      )\n",
       "    )\n",
       "    (4): InvertedResidual(\n",
       "      (branch2): Sequential(\n",
       "        (0): Conv2d(116, 116, kernel_size=(1, 1), stride=(1, 1), bias=False)\n",
       "        (1): BatchNorm2d(116, eps=1e-05, momentum=0.1, affine=True, track_running_stats=True)\n",
       "        (2): ReLU(inplace=True)\n",
       "        (3): Conv2d(116, 116, kernel_size=(3, 3), stride=(1, 1), padding=(1, 1), groups=116, bias=False)\n",
       "        (4): BatchNorm2d(116, eps=1e-05, momentum=0.1, affine=True, track_running_stats=True)\n",
       "        (5): Conv2d(116, 116, kernel_size=(1, 1), stride=(1, 1), bias=False)\n",
       "        (6): BatchNorm2d(116, eps=1e-05, momentum=0.1, affine=True, track_running_stats=True)\n",
       "        (7): ReLU(inplace=True)\n",
       "      )\n",
       "    )\n",
       "    (5): InvertedResidual(\n",
       "      (branch2): Sequential(\n",
       "        (0): Conv2d(116, 116, kernel_size=(1, 1), stride=(1, 1), bias=False)\n",
       "        (1): BatchNorm2d(116, eps=1e-05, momentum=0.1, affine=True, track_running_stats=True)\n",
       "        (2): ReLU(inplace=True)\n",
       "        (3): Conv2d(116, 116, kernel_size=(3, 3), stride=(1, 1), padding=(1, 1), groups=116, bias=False)\n",
       "        (4): BatchNorm2d(116, eps=1e-05, momentum=0.1, affine=True, track_running_stats=True)\n",
       "        (5): Conv2d(116, 116, kernel_size=(1, 1), stride=(1, 1), bias=False)\n",
       "        (6): BatchNorm2d(116, eps=1e-05, momentum=0.1, affine=True, track_running_stats=True)\n",
       "        (7): ReLU(inplace=True)\n",
       "      )\n",
       "    )\n",
       "    (6): InvertedResidual(\n",
       "      (branch2): Sequential(\n",
       "        (0): Conv2d(116, 116, kernel_size=(1, 1), stride=(1, 1), bias=False)\n",
       "        (1): BatchNorm2d(116, eps=1e-05, momentum=0.1, affine=True, track_running_stats=True)\n",
       "        (2): ReLU(inplace=True)\n",
       "        (3): Conv2d(116, 116, kernel_size=(3, 3), stride=(1, 1), padding=(1, 1), groups=116, bias=False)\n",
       "        (4): BatchNorm2d(116, eps=1e-05, momentum=0.1, affine=True, track_running_stats=True)\n",
       "        (5): Conv2d(116, 116, kernel_size=(1, 1), stride=(1, 1), bias=False)\n",
       "        (6): BatchNorm2d(116, eps=1e-05, momentum=0.1, affine=True, track_running_stats=True)\n",
       "        (7): ReLU(inplace=True)\n",
       "      )\n",
       "    )\n",
       "    (7): InvertedResidual(\n",
       "      (branch2): Sequential(\n",
       "        (0): Conv2d(116, 116, kernel_size=(1, 1), stride=(1, 1), bias=False)\n",
       "        (1): BatchNorm2d(116, eps=1e-05, momentum=0.1, affine=True, track_running_stats=True)\n",
       "        (2): ReLU(inplace=True)\n",
       "        (3): Conv2d(116, 116, kernel_size=(3, 3), stride=(1, 1), padding=(1, 1), groups=116, bias=False)\n",
       "        (4): BatchNorm2d(116, eps=1e-05, momentum=0.1, affine=True, track_running_stats=True)\n",
       "        (5): Conv2d(116, 116, kernel_size=(1, 1), stride=(1, 1), bias=False)\n",
       "        (6): BatchNorm2d(116, eps=1e-05, momentum=0.1, affine=True, track_running_stats=True)\n",
       "        (7): ReLU(inplace=True)\n",
       "      )\n",
       "    )\n",
       "  )\n",
       "  (stage4): Sequential(\n",
       "    (0): InvertedResidual(\n",
       "      (branch1): Sequential(\n",
       "        (0): Conv2d(232, 232, kernel_size=(3, 3), stride=(2, 2), padding=(1, 1), groups=232, bias=False)\n",
       "        (1): BatchNorm2d(232, eps=1e-05, momentum=0.1, affine=True, track_running_stats=True)\n",
       "        (2): Conv2d(232, 232, kernel_size=(1, 1), stride=(1, 1), bias=False)\n",
       "        (3): BatchNorm2d(232, eps=1e-05, momentum=0.1, affine=True, track_running_stats=True)\n",
       "        (4): ReLU(inplace=True)\n",
       "      )\n",
       "      (branch2): Sequential(\n",
       "        (0): Conv2d(232, 232, kernel_size=(1, 1), stride=(1, 1), bias=False)\n",
       "        (1): BatchNorm2d(232, eps=1e-05, momentum=0.1, affine=True, track_running_stats=True)\n",
       "        (2): ReLU(inplace=True)\n",
       "        (3): Conv2d(232, 232, kernel_size=(3, 3), stride=(2, 2), padding=(1, 1), groups=232, bias=False)\n",
       "        (4): BatchNorm2d(232, eps=1e-05, momentum=0.1, affine=True, track_running_stats=True)\n",
       "        (5): Conv2d(232, 232, kernel_size=(1, 1), stride=(1, 1), bias=False)\n",
       "        (6): BatchNorm2d(232, eps=1e-05, momentum=0.1, affine=True, track_running_stats=True)\n",
       "        (7): ReLU(inplace=True)\n",
       "      )\n",
       "    )\n",
       "    (1): InvertedResidual(\n",
       "      (branch2): Sequential(\n",
       "        (0): Conv2d(232, 232, kernel_size=(1, 1), stride=(1, 1), bias=False)\n",
       "        (1): BatchNorm2d(232, eps=1e-05, momentum=0.1, affine=True, track_running_stats=True)\n",
       "        (2): ReLU(inplace=True)\n",
       "        (3): Conv2d(232, 232, kernel_size=(3, 3), stride=(1, 1), padding=(1, 1), groups=232, bias=False)\n",
       "        (4): BatchNorm2d(232, eps=1e-05, momentum=0.1, affine=True, track_running_stats=True)\n",
       "        (5): Conv2d(232, 232, kernel_size=(1, 1), stride=(1, 1), bias=False)\n",
       "        (6): BatchNorm2d(232, eps=1e-05, momentum=0.1, affine=True, track_running_stats=True)\n",
       "        (7): ReLU(inplace=True)\n",
       "      )\n",
       "    )\n",
       "    (2): InvertedResidual(\n",
       "      (branch2): Sequential(\n",
       "        (0): Conv2d(232, 232, kernel_size=(1, 1), stride=(1, 1), bias=False)\n",
       "        (1): BatchNorm2d(232, eps=1e-05, momentum=0.1, affine=True, track_running_stats=True)\n",
       "        (2): ReLU(inplace=True)\n",
       "        (3): Conv2d(232, 232, kernel_size=(3, 3), stride=(1, 1), padding=(1, 1), groups=232, bias=False)\n",
       "        (4): BatchNorm2d(232, eps=1e-05, momentum=0.1, affine=True, track_running_stats=True)\n",
       "        (5): Conv2d(232, 232, kernel_size=(1, 1), stride=(1, 1), bias=False)\n",
       "        (6): BatchNorm2d(232, eps=1e-05, momentum=0.1, affine=True, track_running_stats=True)\n",
       "        (7): ReLU(inplace=True)\n",
       "      )\n",
       "    )\n",
       "    (3): InvertedResidual(\n",
       "      (branch2): Sequential(\n",
       "        (0): Conv2d(232, 232, kernel_size=(1, 1), stride=(1, 1), bias=False)\n",
       "        (1): BatchNorm2d(232, eps=1e-05, momentum=0.1, affine=True, track_running_stats=True)\n",
       "        (2): ReLU(inplace=True)\n",
       "        (3): Conv2d(232, 232, kernel_size=(3, 3), stride=(1, 1), padding=(1, 1), groups=232, bias=False)\n",
       "        (4): BatchNorm2d(232, eps=1e-05, momentum=0.1, affine=True, track_running_stats=True)\n",
       "        (5): Conv2d(232, 232, kernel_size=(1, 1), stride=(1, 1), bias=False)\n",
       "        (6): BatchNorm2d(232, eps=1e-05, momentum=0.1, affine=True, track_running_stats=True)\n",
       "        (7): ReLU(inplace=True)\n",
       "      )\n",
       "    )\n",
       "  )\n",
       "  (conv5): Sequential(\n",
       "    (0): Conv2d(464, 1024, kernel_size=(1, 1), stride=(1, 1), bias=False)\n",
       "    (1): BatchNorm2d(1024, eps=1e-05, momentum=0.1, affine=True, track_running_stats=True)\n",
       "    (2): ReLU(inplace=True)\n",
       "  )\n",
       "  (fc): Linear(in_features=1024, out_features=1000, bias=True)\n",
       ")"
      ]
     },
     "execution_count": 201,
     "metadata": {},
     "output_type": "execute_result"
    }
   ],
   "source": [
    "model_conv = torchvision.models.shufflenet_v2_x1_0(pretrained=True)\n",
    "model_conv"
   ]
  },
  {
   "cell_type": "code",
   "execution_count": 203,
   "metadata": {},
   "outputs": [],
   "source": [
…
  {
   "cell_type": "markdown",
   "metadata": {},
   "source": [
    "## GoogLeNet"
   ]
  },
  {
   "cell_type": "code",
   "execution_count": 205,
   "metadata": {},
   "outputs": [
    {
     "name": "stderr",
     "output_type": "stream",
     "text": [
      "Downloading: \"https://download.pytorch.org/models/googlenet-1378be20.pth\" to /Users/nathenhuang/.cache/torch/checkpoints/googlenet-1378be20.pth\n",
      "100%|| 49.7M/49.7M [00:08<00:00, 6.39MB/s]\n"
     ]
    },
    {
     "data": {
      "text/plain": [
       "GoogLeNet(\n",
       "  (conv1): BasicConv2d(\n",
       "    (conv): Conv2d(3, 64, kernel_size=(7, 7), stride=(2, 2), padding=(3, 3), bias=False)\n",
       "    (bn): BatchNorm2d(64, eps=0.001, momentum=0.1, affine=True, track_running_stats=True)\n",
       "  )\n",
       "  (maxpool1): MaxPool2d(kernel_size=3, stride=2, padding=0, dilation=1, ceil_mode=True)\n",
       "  (conv2): BasicConv2d(\n",
       "    (conv): Conv2d(64, 64, kernel_size=(1, 1), stride=(1, 1), bias=False)\n",
       "    (bn): BatchNorm2d(64, eps=0.001, momentum=0.1, affine=True, track_running_stats=True)\n",
       "  )\n",
       "  (conv3): BasicConv2d(\n",
       "    (conv): Conv2d(64, 192, kernel_size=(3, 3), stride=(1, 1), padding=(1, 1), bias=False)\n",
       "    (bn): BatchNorm2d(192, eps=0.001, momentum=0.1, affine=True, track_running_stats=True)\n",
       "  )\n",
       "  (maxpool2): MaxPool2d(kernel_size=3, stride=2, padding=0, dilation=1, ceil_mode=True)\n",
       "  (inception3a): Inception(\n",
       "    (branch1): BasicConv2d(\n",
       "      (conv): Conv2d(192, 64, kernel_size=(1, 1), stride=(1, 1), bias=False)\n",
       "      (bn): BatchNorm2d(64, eps=0.001, momentum=0.1, affine=True, track_running_stats=True)\n",
       "    )\n",
       "    (branch2): Sequential(\n",
       "      (0): BasicConv2d(\n",
       "        (conv): Conv2d(192, 96, kernel_size=(1, 1), stride=(1, 1), bias=False)\n",
       "        (bn): BatchNorm2d(96, eps=0.001, momentum=0.1, affine=True, track_running_stats=True)\n",
       "      )\n",
       "      (1): BasicConv2d(\n",
       "        (conv): Conv2d(96, 128, kernel_size=(3, 3), stride=(1, 1), padding=(1, 1), bias=False)\n",
       "        (bn): BatchNorm2d(128, eps=0.001, momentum=0.1, affine=True, track_running_stats=True)\n",
       "      )\n",
       "    )\n",
       "    (branch3): Sequential(\n",
       "      (0): BasicConv2d(\n",
       "        (conv): Conv2d(192, 16, kernel_size=(1, 1), stride=(1, 1), bias=False)\n",
       "        (bn): BatchNorm2d(16, eps=0.001, momentum=0.1, affine=True, track_running_stats=True)\n",
       "      )\n",
       "      (1): BasicConv2d(\n",
       "        (conv): Conv2d(16, 32, kernel_size=(3, 3), stride=(1, 1), padding=(1, 1), bias=False)\n",
       "        (bn): BatchNorm2d(32, eps=0.001, momentum=0.1, affine=True, track_running_stats=True)\n",
       "      )\n",
       "    )\n",
       "    (branch4): Sequential(\n",
       "      (0): MaxPool2d(kernel_size=3, stride=1, padding=1, dilation=1, ceil_mode=True)\n",
       "      (1): BasicConv2d(\n",
       "        (conv): Conv2d(192, 32, kernel_size=(1, 1), stride=(1, 1), bias=False)\n",
       "        (bn): BatchNorm2d(32, eps=0.001, momentum=0.1, affine=True, track_running_stats=True)\n",
       "      )\n",
       "    )\n",
       "  )\n",
       "  (inception3b): Inception(\n",
       "    (branch1): BasicConv2d(\n",
       "      (conv): Conv2d(256, 128, kernel_size=(1, 1), stride=(1, 1), bias=False)\n",
       "      (bn): BatchNorm2d(128, eps=0.001, momentum=0.1, affine=True, track_running_stats=True)\n",
       "    )\n",
       "    (branch2): Sequential(\n",
       "      (0): BasicConv2d(\n",
       "        (conv): Conv2d(256, 128, kernel_size=(1, 1), stride=(1, 1), bias=False)\n",
       "        (bn): BatchNorm2d(128, eps=0.001, momentum=0.1, affine=True, track_running_stats=True)\n",
       "      )\n",
       "      (1): BasicConv2d(\n",
       "        (conv): Conv2d(128, 192, kernel_size=(3, 3), stride=(1, 1), padding=(1, 1), bias=False)\n",
       "        (bn): BatchNorm2d(192, eps=0.001, momentum=0.1, affine=True, track_running_stats=True)\n",
       "      )\n",
       "    )\n",
       "    (branch3): Sequential(\n",
       "      (0): BasicConv2d(\n",
       "        (conv): Conv2d(256, 32, kernel_size=(1, 1), stride=(1, 1), bias=False)\n",
       "        (bn): BatchNorm2d(32, eps=0.001, momentum=0.1, affine=True, track_running_stats=True)\n",
       "      )\n",
       "      (1): BasicConv2d(\n",
       "        (conv): Conv2d(32, 96, kernel_size=(3, 3), stride=(1, 1), padding=(1, 1), bias=False)\n",
       "        (bn): BatchNorm2d(96, eps=0.001, momentum=0.1, affine=True, track_running_stats=True)\n",
       "      )\n",
       "    )\n",
       "    (branch4): Sequential(\n",
       "      (0): MaxPool2d(kernel_size=3, stride=1, padding=1, dilation=1, ceil_mode=True)\n",
       "      (1): BasicConv2d(\n",
       "        (conv): Conv2d(256, 64, kernel_size=(1, 1), stride=(1, 1), bias=False)\n",
       "        (bn): BatchNorm2d(64, eps=0.001, momentum=0.1, affine=True, track_running_stats=True)\n",
       "      )\n",
       "    )\n",
       "  )\n",
       "  (maxpool3): MaxPool2d(kernel_size=3, stride=2, padding=0, dilation=1, ceil_mode=True)\n",
       "  (inception4a): Inception(\n",
       "    (branch1): BasicConv2d(\n",
       "      (conv): Conv2d(480, 192, kernel_size=(1, 1), stride=(1, 1), bias=False)\n",
       "      (bn): BatchNorm2d(192, eps=0.001, momentum=0.1, affine=True, track_running_stats=True)\n",
       "    )\n",
       "    (branch2): Sequential(\n",
       "      (0): BasicConv2d(\n",
       "        (conv): Conv2d(480, 96, kernel_size=(1, 1), stride=(1, 1), bias=False)\n",
       "        (bn): BatchNorm2d(96, eps=0.001, momentum=0.1, affine=True, track_running_stats=True)\n",
       "      )\n",
       "      (1): BasicConv2d(\n",
       "        (conv): Conv2d(96, 208, kernel_size=(3, 3), stride=(1, 1), padding=(1, 1), bias=False)\n",
       "        (bn): BatchNorm2d(208, eps=0.001, momentum=0.1, affine=True, track_running_stats=True)\n",
       "      )\n",
       "    )\n",
       "    (branch3): Sequential(\n",
       "      (0): BasicConv2d(\n",
       "        (conv): Conv2d(480, 16, kernel_size=(1, 1), stride=(1, 1), bias=False)\n",
       "        (bn): BatchNorm2d(16, eps=0.001, momentum=0.1, affine=True, track_running_stats=True)\n",
       "      )\n",
       "      (1): BasicConv2d(\n",
       "        (conv): Conv2d(16, 48, kernel_size=(3, 3), stride=(1, 1), padding=(1, 1), bias=False)\n",
       "        (bn): BatchNorm2d(48, eps=0.001, momentum=0.1, affine=True, track_running_stats=True)\n",
       "      )\n",
       "    )\n",
       "    (branch4): Sequential(\n",
       "      (0): MaxPool2d(kernel_size=3, stride=1, padding=1, dilation=1, ceil_mode=True)\n",
       "      (1): BasicConv2d(\n",
       "        (conv): Conv2d(480, 64, kernel_size=(1, 1), stride=(1, 1), bias=False)\n",
       "        (bn): BatchNorm2d(64, eps=0.001, momentum=0.1, affine=True, track_running_stats=True)\n",
       "      )\n",
       "    )\n",
       "  )\n",
       "  (inception4b): Inception(\n",
       "    (branch1): BasicConv2d(\n",
       "      (conv): Conv2d(512, 160, kernel_size=(1, 1), stride=(1, 1), bias=False)\n",
       "      (bn): BatchNorm2d(160, eps=0.001, momentum=0.1, affine=True, track_running_stats=True)\n",
       "    )\n",
       "    (branch2): Sequential(\n",
       "      (0): BasicConv2d(\n",
       "        (conv): Conv2d(512, 112, kernel_size=(1, 1), stride=(1, 1), bias=False)\n",
       "        (bn): BatchNorm2d(112, eps=0.001, momentum=0.1, affine=True, track_running_stats=True)\n",
       "      )\n",
       "      (1): BasicConv2d(\n",
       "        (conv): Conv2d(112, 224, kernel_size=(3, 3), stride=(1, 1), padding=(1, 1), bias=False)\n",
       "        (bn): BatchNorm2d(224, eps=0.001, momentum=0.1, affine=True, track_running_stats=True)\n",
       "      )\n",
       "    )\n",
       "    (branch3): Sequential(\n",
       "      (0): BasicConv2d(\n",
       "        (conv): Conv2d(512, 24, kernel_size=(1, 1), stride=(1, 1), bias=False)\n",
       "        (bn): BatchNorm2d(24, eps=0.001, momentum=0.1, affine=True, track_running_stats=True)\n",
       "      )\n",
       "      (1): BasicConv2d(\n",
       "        (conv): Conv2d(24, 64, kernel_size=(3, 3), stride=(1, 1), padding=(1, 1), bias=False)\n",
       "        (bn): BatchNorm2d(64, eps=0.001, momentum=0.1, affine=True, track_running_stats=True)\n",
       "      )\n",
       "    )\n",
       "    (branch4): Sequential(\n",
       "      (0): MaxPool2d(kernel_size=3, stride=1, padding=1, dilation=1, ceil_mode=True)\n",
       "      (1): BasicConv2d(\n",
       "        (conv): Conv2d(512, 64, kernel_size=(1, 1), stride=(1, 1), bias=False)\n",
       "        (bn): BatchNorm2d(64, eps=0.001, momentum=0.1, affine=True, track_running_stats=True)\n",
       "      )\n",
       "    )\n",
       "  )\n",
       "  (inception4c): Inception(\n",
       "    (branch1): BasicConv2d(\n",
       "      (conv): Conv2d(512, 128, kernel_size=(1, 1), stride=(1, 1), bias=False)\n",
       "      (bn): BatchNorm2d(128, eps=0.001, momentum=0.1, affine=True, track_running_stats=True)\n",
       "    )\n",
       "    (branch2): Sequential(\n",
       "      (0): BasicConv2d(\n",
       "        (conv): Conv2d(512, 128, kernel_size=(1, 1), stride=(1, 1), bias=False)\n",
       "        (bn): BatchNorm2d(128, eps=0.001, momentum=0.1, affine=True, track_running_stats=True)\n",
       "      )\n",
       "      (1): BasicConv2d(\n",
       "        (conv): Conv2d(128, 256, kernel_size=(3, 3), stride=(1, 1), padding=(1, 1), bias=False)\n",
       "        (bn): BatchNorm2d(256, eps=0.001, momentum=0.1, affine=True, track_running_stats=True)\n",
       "      )\n",
       "    )\n",
       "    (branch3): Sequential(\n",
       "      (0): BasicConv2d(\n",
       "        (conv): Conv2d(512, 24, kernel_size=(1, 1), stride=(1, 1), bias=False)\n",
       "        (bn): BatchNorm2d(24, eps=0.001, momentum=0.1, affine=True, track_running_stats=True)\n",
       "      )\n",
       "      (1): BasicConv2d(\n",
       "        (conv): Conv2d(24, 64, kernel_size=(3, 3), stride=(1, 1), padding=(1, 1), bias=False)\n",
       "        (bn): BatchNorm2d(64, eps=0.001, momentum=0.1, affine=True, track_running_stats=True)\n",
       "      )\n",
       "    )\n",
       "    (branch4): Sequential(\n",
       "      (0): MaxPool2d(kernel_size=3, stride=1, padding=1, dilation=1, ceil_mode=True)\n",
       "      (1): BasicConv2d(\n",
       "        (conv): Conv2d(512, 64, kernel_size=(1, 1), stride=(1, 1), bias=False)\n",
       "        (bn): BatchNorm2d(64, eps=0.001, momentum=0.1, affine=True, track_running_stats=True)\n",
       "      )\n",
       "    )\n",
       "  )\n",
       "  (inception4d): Inception(\n",
       "    (branch1): BasicConv2d(\n",
       "      (conv): Conv2d(512, 112, kernel_size=(1, 1), stride=(1, 1), bias=False)\n",
       "      (bn): BatchNorm2d(112, eps=0.001, momentum=0.1, affine=True, track_running_stats=True)\n",
       "    )\n",
       "    (branch2): Sequential(\n",
       "      (0): BasicConv2d(\n",
       "        (conv): Conv2d(512, 144, kernel_size=(1, 1), stride=(1, 1), bias=False)\n",
       "        (bn): BatchNorm2d(144, eps=0.001, momentum=0.1, affine=True, track_running_stats=True)\n",
       "      )\n",
       "      (1): BasicConv2d(\n",
       "        (conv): Conv2d(144, 288, kernel_size=(3, 3), stride=(1, 1), padding=(1, 1), bias=False)\n",
       "        (bn): BatchNorm2d(288, eps=0.001, momentum=0.1, affine=True, track_running_stats=True)\n",
       "      )\n",
       "    )\n",
       "    (branch3): Sequential(\n",
       "      (0): BasicConv2d(\n",
       "        (conv): Conv2d(512, 32, kernel_size=(1, 1), stride=(1, 1), bias=False)\n",
       "        (bn): BatchNorm2d(32, eps=0.001, momentum=0.1, affine=True, track_running_stats=True)\n",
       "      )\n",
       "      (1): BasicConv2d(\n",
       "        (conv): Conv2d(32, 64, kernel_size=(3, 3), stride=(1, 1), padding=(1, 1), bias=False)\n",
       "        (bn): BatchNorm2d(64, eps=0.001, momentum=0.1, affine=True, track_running_stats=True)\n",
       "      )\n",
       "    )\n",
       "    (branch4): Sequential(\n",
       "      (0): MaxPool2d(kernel_size=3, stride=1, padding=1, dilation=1, ceil_mode=True)\n",
       "      (1): BasicConv2d(\n",
       "        (conv): Conv2d(512, 64, kernel_size=(1, 1), stride=(1, 1), bias=False)\n",
       "        (bn): BatchNorm2d(64, eps=0.001, momentum=0.1, affine=True, track_running_stats=True)\n",
       "      )\n",
       "    )\n",
       "  )\n",
       "  (inception4e): Inception(\n",
       "    (branch1): BasicConv2d(\n",
       "      (conv): Conv2d(528, 256, kernel_size=(1, 1), stride=(1, 1), bias=False)\n",
       "      (bn): BatchNorm2d(256, eps=0.001, momentum=0.1, affine=True, track_running_stats=True)\n",
       "    )\n",
       "    (branch2): Sequential(\n",
       "      (0): BasicConv2d(\n",
       "        (conv): Conv2d(528, 160, kernel_size=(1, 1), stride=(1, 1), bias=False)\n",
       "        (bn): BatchNorm2d(160, eps=0.001, momentum=0.1, affine=True, track_running_stats=True)\n",
       "      )\n",
       "      (1): BasicConv2d(\n",
       "        (conv): Conv2d(160, 320, kernel_size=(3, 3), stride=(1, 1), padding=(1, 1), bias=False)\n",
       "        (bn): BatchNorm2d(320, eps=0.001, momentum=0.1, affine=True, track_running_stats=True)\n",
       "      )\n",
       "    )\n",
       "    (branch3): Sequential(\n",
       "      (0): BasicConv2d(\n",
       "        (conv): Conv2d(528, 32, kernel_size=(1, 1), stride=(1, 1), bias=False)\n",
       "        (bn): BatchNorm2d(32, eps=0.001, momentum=0.1, affine=True, track_running_stats=True)\n",
       "      )\n",
       "      (1): BasicConv2d(\n",
       "        (conv): Conv2d(32, 128, kernel_size=(3, 3), stride=(1, 1), padding=(1, 1), bias=False)\n",
       "        (bn): BatchNorm2d(128, eps=0.001, momentum=0.1, affine=True, track_running_stats=True)\n",
       "      )\n",
       "    )\n",
       "    (branch4): Sequential(\n",
       "      (0): MaxPool2d(kernel_size=3, stride=1, padding=1, dilation=1, ceil_mode=True)\n",
       "      (1): BasicConv2d(\n",
       "        (conv): Conv2d(528, 128, kernel_size=(1, 1), stride=(1, 1), bias=False)\n",
       "        (bn): BatchNorm2d(128, eps=0.001, momentum=0.1, affine=True, track_running_stats=True)\n",
       "      )\n",
       "    )\n",
       "  )\n",
       "  (maxpool4): MaxPool2d(kernel_size=2, stride=2, padding=0, dilation=1, ceil_mode=True)\n",
       "  (inception5a): Inception(\n",
       "    (branch1): BasicConv2d(\n",
       "      (conv): Conv2d(832, 256, kernel_size=(1, 1), stride=(1, 1), bias=False)\n",
       "      (bn): BatchNorm2d(256, eps=0.001, momentum=0.1, affine=True, track_running_stats=True)\n",
       "    )\n",
       "    (branch2): Sequential(\n",
       "      (0): BasicConv2d(\n",
       "        (conv): Conv2d(832, 160, kernel_size=(1, 1), stride=(1, 1), bias=False)\n",
       "        (bn): BatchNorm2d(160, eps=0.001, momentum=0.1, affine=True, track_running_stats=True)\n",
       "      )\n",
       "      (1): BasicConv2d(\n",
       "        (conv): Conv2d(160, 320, kernel_size=(3, 3), stride=(1, 1), padding=(1, 1), bias=False)\n",
       "        (bn): BatchNorm2d(320, eps=0.001, momentum=0.1, affine=True, track_running_stats=True)\n",
       "      )\n",
       "    )\n",
       "    (branch3): Sequential(\n",
       "      (0): BasicConv2d(\n",
       "        (conv): Conv2d(832, 32, kernel_size=(1, 1), stride=(1, 1), bias=False)\n",
       "        (bn): BatchNorm2d(32, eps=0.001, momentum=0.1, affine=True, track_running_stats=True)\n",
       "      )\n",
       "      (1): BasicConv2d(\n",
       "        (conv): Conv2d(32, 128, kernel_size=(3, 3), stride=(1, 1), padding=(1, 1), bias=False)\n",
       "        (bn): BatchNorm2d(128, eps=0.001, momentum=0.1, affine=True, track_running_stats=True)\n",
       "      )\n",
       "    )\n",
       "    (branch4): Sequential(\n",
       "      (0): MaxPool2d(kernel_size=3, stride=1, padding=1, dilation=1, ceil_mode=True)\n",
       "      (1): BasicConv2d(\n",
       "        (conv): Conv2d(832, 128, kernel_size=(1, 1), stride=(1, 1), bias=False)\n",
       "        (bn): BatchNorm2d(128, eps=0.001, momentum=0.1, affine=True, track_running_stats=True)\n",
       "      )\n",
       "    )\n",
       "  )\n",
       "  (inception5b): Inception(\n",
       "    (branch1): BasicConv2d(\n",
       "      (conv): Conv2d(832, 384, kernel_size=(1, 1), stride=(1, 1), bias=False)\n",
       "      (bn): BatchNorm2d(384, eps=0.001, momentum=0.1, affine=True, track_running_stats=True)\n",
       "    )\n",
       "    (branch2): Sequential(\n",
       "      (0): BasicConv2d(\n",
       "        (conv): Conv2d(832, 192, kernel_size=(1, 1), stride=(1, 1), bias=False)\n",
       "        (bn): BatchNorm2d(192, eps=0.001, momentum=0.1, affine=True, track_running_stats=True)\n",
       "      )\n",
       "      (1): BasicConv2d(\n",
       "        (conv): Conv2d(192, 384, kernel_size=(3, 3), stride=(1, 1), padding=(1, 1), bias=False)\n",
       "        (bn): BatchNorm2d(384, eps=0.001, momentum=0.1, affine=True, track_running_stats=True)\n",
       "      )\n",
       "    )\n",
       "    (branch3): Sequential(\n",
       "      (0): BasicConv2d(\n",
       "        (conv): Conv2d(832, 48, kernel_size=(1, 1), stride=(1, 1), bias=False)\n",
       "        (bn): BatchNorm2d(48, eps=0.001, momentum=0.1, affine=True, track_running_stats=True)\n",
       "      )\n",
       "      (1): BasicConv2d(\n",
       "        (conv): Conv2d(48, 128, kernel_size=(3, 3), stride=(1, 1), padding=(1, 1), bias=False)\n",
       "        (bn): BatchNorm2d(128, eps=0.001, momentum=0.1, affine=True, track_running_stats=True)\n",
       "      )\n",
       "    )\n",
       "    (branch4): Sequential(\n",
       "      (0): MaxPool2d(kernel_size=3, stride=1, padding=1, dilation=1, ceil_mode=True)\n",
       "      (1): BasicConv2d(\n",
       "        (conv): Conv2d(832, 128, kernel_size=(1, 1), stride=(1, 1), bias=False)\n",
       "        (bn): BatchNorm2d(128, eps=0.001, momentum=0.1, affine=True, track_running_stats=True)\n",
       "      )\n",
       "    )\n",
       "  )\n",
       "  (avgpool): AdaptiveAvgPool2d(output_size=(1, 1))\n",
       "  (dropout): Dropout(p=0.2, inplace=False)\n",
       "  (fc): Linear(in_features=1024, out_features=1000, bias=True)\n",
       ")"
      ]
     },
     "execution_count": 205,
     "metadata": {},
     "output_type": "execute_result"
    }
   ],
   "source": [
    "models.googlenet(pretrained=True)"
   ]
  },
  {
   "cell_type": "code",
   "execution_count": 206,
   "metadata": {},
   "outputs": [],
   "source": [
    "device = torch.device(\"cuda:0\" if torch.cuda.is_available() else \"cpu\")\n",
…
